output/uncertainty_model_epoch0.pth (torch, 82829 bytes, 12 tensors)

imgconv1.weight f4 [24, 5, 3, 3]
00000000: 34e0 483e 7e24 1f3d 3d13 763d 8f66 06bd
00000010: 3820 e83c dad4 043d b07d 613d b417 4bbd
00000020: 1c76 81bb 82af 7f3e 0693 bebd 6a64 0dbd
00000030: 0c7a c1bd 2ec3 c5bc a440 27be 6cbf 9d3c
00000040: bf97 783c a862 083d 5bb4 233e 3db5 71bc
00000050: 88c3 463d 3bd8 293e 6933 8dbc 0f11 02be
00000060: 9e57 5e3b 685e 1fbe b09a 923d 1f45 00be
00000070: 8422 2cbd e338 b03d 1923 cfbd 8079 383c
00000080: 87f2 613e f82a 833d 650b eabc bb0d c53d
00000090: 4505 a5be 1681 453d e4e7 273d 3172 6ebe
000000a0: 73f5 a33d 86e8 6f3d 839c aebb b267 a3bd
000000b0: 4ce9 90bd a4ab a93c 6f60 25be 8e05 15bd
000000c0: 6076 cebd 50c5 acbd a558 88bd 275f 3f3c
000000d0: 226c a4bc 80a7 813c d6ec 103d 889b 9ebd
000000e0: fba7 94bb eb0f 61bb aac4 d5ba 90eb c1bd
000000f0: c82d 45bd 3a3b 3ebe 015b 75bd f267 66bd
00000100: c0a1 ed3d 2d82 8dbd 309f 82bd 621f 34bd
00000110: 1c62 2c3d 5271 51bd f983 b8bd 56a9 3ebe
00000120: d843 14bf ebf3 1bbf ccd2 cbbe e7d3 21bf
00000130: 450d a8be 946c eebe 381b b1be dd23 88be
00000140: 8a15 a5be a6e5 22bf a323 35bf 580b 88be
00000150: 781a d9be 0a9f ebbe d803 4ebe b9f8 32be
00000160: af2d 12bd 0262 f4bd 9576 2b3e 7e80 533c
00000170: 5cfa 23be 9b04 fd3b 2ecb ddbd ee3b ccbc
00000180: d6a5 fcba 96e1 62bd 3775 be3c 7320 aabd
00000190: b89f 0cbd 60ed 463d 28b3 9dbc c140 263c
000001a0: 7362 0b3e d0d7 ca3c f208 cc3d e48f 3abd
000001b0: 280d 833c 8870 32be aa8d 65bd 2d25 fabd
000001c0: 4c4d 0abd 9f89 9ebd 9249 4abd be9a 233e
000001d0: 4079 ca3c 4423 083e 6892 533e 0fb4 2a3e
000001e0: a331 0a3e 5dac d13e c6ae 8f3e d942 1fbd
000001f0: d989 763e 98e4 9a3d b4c4 8ebc 7ffa f93d
00000200: edf0 e63c c698 4fbd e329 863e de80 df3d
00000210: ccb8 c33c 5e09 20bc e1e3 17be 78ac 09bb
00000220: 8216 1c3d 5784 1bbe 43ff 5c3d c532 f1bd
00000230: 4b46 0abd 4491 423e 6a37 da3d 55c3 0f3e
00000240: 8a84 56bd ee0b edbb 7e80 01be be5a 563d
00000250: a494 c53d 8edb 793e 20a0 d73d 8cb4 33bd
00000260: d82c 8739 5ea4 4d3d e6c6 b1bd 48ef ffbb
00000270: 6729 6a3d 4802 e13d b139 263c eac6 2e3c
00000280: 9077 993d 7f68 b0bc dc68 90be c153 f3be
00000290: 307a 80be 7078 4fbf 7c0d 8dbf 1085 16bf
000002a0: 94f8 3bbf 0e60 55bf 9e71 b2be 4d27 af3d
000002b0: ea6b cb3d d006 b83d 7105 643e fee1 23bd
000002c0: dc57 883e 54ba 043e 3757 2cbd e4d7 2e3e
000002d0: f870 8abd 86da fb3d 39d5 e4bd ec53 f6bd
000002e0: 9386 8e3d 417a 703d b714 843d a8a0 42bd
000002f0: 5c29 733b 88f3 88bc 84d8 f8b8 f6f8 dd3c
00000300: 31e8 cd3d b178 c73d b694 7ebb e6b6 95bd
00000310: 3a37 423d ebac 003e 04df 0f3e 6ce1 103e
00000320: eec3 3b3d a87e 243e e136 1fbe 9071 ddbd
00000330: 347e fd3d 568b e9bc 0f34 0e3d 0d88 0cbf
00000340: d633 2bbf 2b36 02be c83e 1abf 3dbc 26bf
00000350: 5e89 01bf 8d72 25bf 303d 3abf 1a50 f8be
00000360: b815 bbbd b56b 87be 192a 453d 6a36 a4bd
00000370: b456 88be 9f22 a8bc dfb5 363c 0d52 33be
00000380: 31b1 31be 35c4 87bd 5402 dbbd 6456 3abc
00000390: 1487 9bbc 088a 1f3e 31f0 80bd a698 323e
000003a0: 9ef5 183e a733 13bd 2bfa 66bd 4df9 913c
000003b0: 394f c63d a5a5 30bd fc1a d2bd 7359 e53d
000003c0: b72c 913d 497b a4bc 36e3 3bbd 7f9d 5bbd
000003d0: 49cc 043e 9f48 e33c 67cd 01be 273f 933d
000003e0: caab a13b de0e 5b3d b154 213d 2e03 b8bd
000003f0: b354 c0be ee7d 8bbe 8352 85be de8e 32bf
0.19616777 0.03885316 0.06007694 -0.03281265 0.028335676 0.032429554 0.055051506 -0.049583152
-0.0039508473 0.24969295 -0.09305386 -0.03451959 -0.09447107 -0.02414092 -0.16333252 0.019256316
0.015172898 0.03329721 0.15986769 -0.014752683 0.048526317 0.16586392 -0.017236428 -0.1270182
0.0033926736 -0.15563357 0.071584105 -0.12526368 -0.042025104 0.086046 -0.10114116 0.011259437
0.22065173 0.0640468 -0.028569886 0.096217595 -0.32230583 0.04821881 0.040992633 -0.23285748
0.080058 0.05857136 -0.0053287162 -0.07978763 -0.07075748 0.020711727 -0.16150068 -0.03638225
-0.10081172 -0.08436072 -0.066575326 0.011680401 -0.020071093 0.01582694 0.035382114 -0.07744509
-0.0045366264 -0.0034341763 -0.0016309221 -0.09468758 -0.048139364 -0.1857728 -0.05990124 -0.056251474
0.11603117 -0.06909595 -0.06378019 -0.04397524 0.042085752 -0.05113346 -0.09009547 -0.18619284
-0.5791602 -0.60919064 -0.39809263 -0.6321396 -0.32822624 -0.46567214 -0.3459108 -0.26589862
-0.32242996 -0.63631666 -0.707575 -0.26571155 -0.42403007 -0.46019775 -0.20118654 -0.17477693
-0.0356881 -0.11932756 0.16744454 0.012909053 -0.16013473 0.0077214963 -0.10829769 -0.02493092
-0.0019275497 -0.055390917 0.023249252 -0.083069704 -0.034332007 0.048566222 -0.019250467 0.0101472745
0.13611774 0.02476111 0.09962644 -0.04554738 0.015997484 -0.1742574 -0.056043305 -0.12214122
-0.033765122 -0.07741093 -0.04938657 0.15976998 0.02471602 0.13294703 0.20661318 0.1667025
0.13495497 0.40951815 0.2806303 -0.03888211 0.24076022 0.07563132 -0.01742778 0.122059815
0.028191054 -0.050682805 0.26203832 0.10913251 0.023891829 -0.009767858 -0.14833023 -0.002100734
0.038107403 -0.15187202 0.053954374 -0.11777262 -0.033758443 0.19000727 0.10655101 0.14039357
-0.052372493 -0.007234088 -0.12646672 0.052332632 0.096474916 0.2440016 0.10528588 -0.043873355
0.00025782618 0.05020558 -0.08680515 -0.007810507 0.05716839 0.10986763 0.010145591 0.010667542
0.07493508 -0.021534203 -0.28205 -0.47524837 -0.25093222 -0.8104315 -1.101974 -0.5879679
-0.73426175 -0.8334969 -0.34852308 0.08552418 0.09932692 0.089856744 0.222677 -0.040010445
0.2662953 0.12961704 -0.042075362 0.17074543 -0.06759828 0.122975394 -0.111734815 -0.120277256
0.06959262 0.05871034 0.064492635 -0.047516495 0.003710351 -0.016717687 -0.00011865891 0.027096253
0.100540526 0.09739817 -0.0038845963 -0.07310276 0.04741595 0.12565963 0.14049917 0.14148492
0.04584115 0.1606394 -0.15548278 -0.10812676 0.12377587 -0.028508823 0.034717616 -0.54895097
-0.6687597 -0.12715976 -0.60252047 -0.6513098 -0.5060023 -0.64627916 -0.72749615 -0.48498613
-0.09135002 -0.2644936 0.04813585 -0.08018191 -0.2662865 -0.020524321 0.01115176 -0.17511769
-0.1735275 -0.066292204 -0.106938034 -0.011373136 -0.018985309 0.15579998 -0.06295813 0.17441043
0.14937446 -0.03593793 -0.056390923 0.017819071 0.09683079 -0.04312672 -0.10259053 0.11198702
0.07088607 -0.020078318 -0.045870982 -0.053616997 0.12968554 0.02774459 -0.12676011 0.0718978
0.004933809 0.053480975 0.03938741 -0.089849815 -0.3756462 -0.27244514 -0.26039514 -0.6974925

imgconv1.bias f4 [24]
00000000: 996c 0b3e c3bc 473d 524d a4bd e86f 233e
00000010: f32d 023e c777 6cbd 8ae1 b0bc b30e 42be
00000020: d5a0 26be 40f5 b8be 3cd4 52be 2423 4bbe
00000030: 7588 ad3a 9d08 af3d 9942 c53a aec2 bebc
00000040: 258c c5be 6881 893d eb57 80be fb2b 9abd
00000050: d112 96be 7d32 433d c809 0dbe 1b16 87bd
0.13615645 0.048764 -0.0802256 0.15960658 0.1271284 -0.057731416 -0.02159192 -0.1895092
-0.1627229 -0.3612461 -0.20588773 -0.19837624 0.001323952 0.08546565 0.0015049755 -0.02328619
-0.38583484 0.067141354 -0.25067076 -0.0752792 -0.2931123 0.04765557 -0.13773263 -0.06596013

imgconv2.weight f4 [32, 24, 3, 3]
00000000: a7b3 433c ae96 03bd 8478 60bd c0bc b8bd
00000010: c785 d4bd 0509 02be a15f 57bd 4f97 73bc
00000020: cbbe 163d b79d 98bc 58df 23bd 05fe 923b
00000030: 0d45 8bbd 1c47 0abd 2239 343b 29fd 9abd
00000040: 2dc2 8cbc c519 87bd 1e63 0dbe b794 a1bd
00000050: ccce 97bd 034a a0bd a3ff 05be d60a f6bd
00000060: 9522 bebd 576f 58bd 6198 40bd c2a9 0d3d
00000070: db9e 7dbd a711 bdbd 66ef 6ebd fc3e dcbd
00000080: ac5b d9bd f2c1 0bbe dea7 7abd cf17 73bb
00000090: ccae bdbd 44ce 9abd ab57 863d cd44 80bd
000000a0: adfb 643b 3cef db3c 00d7 273d 3a04 adbb
000000b0: d4be b23c 49b5 7fbd 5c5e febc 680d 0ebd
000000c0: abc5 85bd 5df2 acbd 9575 acbd c840 3ebd
000000d0: bf1a 11bd 7342 80bc e8c5 e13d 1b04 b0bd
000000e0: dc3b ca3c 45c2 a83c 2bad c9bd e610 12be
000000f0: 4c58 45be e9e7 f6bd 7bb1 0cbe 3313 25bd
00000100: 6a1d 84bb 5e53 87bc c103 f6bd c823 a9bd
00000110: 7d89 94bd b7ba 5cbc df69 2bbd 1b13 afbc
00000120: 8625 84bd ce39 d8bd ee74 8abd 64c3 8abd
00000130: c718 e7bd 4dad abbd f881 dabd 6b1d 6abd
00000140: 7c57 afbd 3d29 e7bd 98a2 37be 988a 323d
00000150: 0199 93bc f6d9 17bd 6005 94bc ef8b 87bc
00000160: dcbf 12be 499e b6bc dd69 04be 8cb3 1abb
00000170: 581f 4dbd 5ff2 cbbd e6c1 dabd 67b4 34be
00000180: c827 98bd ed05 e4bd c849 63bc eaf6 903c
00000190: 795d 9cbd 08c2 b5bd 8074 a3bd 9285 e3bc
000001a0: 6c5c 293c 6472 753b d50d 6d3c cfa5 01bd
000001b0: 5855 a8bb 92d6 57bc dd72 773b e385 9fbc
000001c0: 03b9 04bc cae8 a93c 2317 ce3c 8c21 8f3b
000001d0: b9e8 b2bc c1ad e8bd 818e 1d3c 18d1 533d
000001e0: a5c9 72bc 66e7 4d3d 3711 333d ecf9 19bc
000001f0: e646 7abd 9de1 de3c 27e2 46bc 30e3 e1bd
00000200: 2a21 83bd 77a3 9ebd 284a c2bc 342b 233d
00000210: 056b 5bbc 8e36 1bbd 0be5 21bc 12e9 473d
00000220: 4bac 253d 6103 94bd b811 293d 4497 8339
00000230: 9d82 5fbc 5f70 dd3c 499b 7ebc f822 abbd
00000240: 2fa5 afbd 4411 95bd 0896 923c a5b7 19be
00000250: 821c cd3d 6ce2 b7bd 6cfc cdbd 2581 4a3d
00000260: 67b6 f3bd ea80 aabc 5557 9ebd 79b5 b4bc
00000270: 2003 d3bc 00b6 d0bd d79f d0bd 130d 0ab9
00000280: df79 3cbd 5e4f 1fbd 66c1 a9bc f033 88bc
00000290: 74cc 1fbd d878 d7bd d527 933b 390d b6bb
000002a0: 4fa0 963c 0d32 db3c 2e88 18bc f302 003d
000002b0: 9fa4 a4bb 9bdc df39 4792 87bc be58 a3bd
000002c0: c173 3abd 21c2 77bd 73a9 4cbd deb2 1c3c
000002d0: 75cb 63bd 280f 4f3d d7a5 aebd c00a 4dbc
000002e0: 720b e4bd 8c98 603d 57b1 18be 629d 11be
000002f0: 4367 87bd 797b f6bc d327 d2bc 56fb 8fbc
00000300: 8cfb 3f3d 6901 98bd 884f 3b3d a3ea 6d3b
00000310: bc91 cfbb df52 1abd eea0 54bd ff66 b73c
00000320: 5a13 1ebd 1176 96bd 5011 b8bc 1cd1 a5bb
00000330: 5e09 003c 672a 15ba b2bc 0bbe 1517 a13b
00000340: b1cd 12bc 910f 60bd f5d6 18be 8f32 1dbc
00000350: 93e4 5bbc d298 a1bc c91c 9fbc 1218 8cbd
00000360: 815b 01be 7b3f 933b 0830 9b3b 5bd7 b8bb
00000370: b322 9b3d 26df 9bbd 6970 443c 29d3 33bd
00000380: a5bf 06be 367b 6f3d 63a7 88bc d8c6 11be
00000390: 09d7 abbc 34ad abbd 6d5c 97bd ba2e b2bd
000003a0: 70d2 26be 35e4 c2bd 4b55 57bd d8d9 43bd
000003b0: 89bc bcbd 9d5c 04be b377 05bd a142 1fbd
000003c0: 4497 7abd 7217 adbc 9825 6fbd 07e4 9dbd
000003d0: 0c0e 2dbd 1846 dfbc 9fae 46be 61cd e03c
000003e0: a8f1 c4bc 5811 a3bd e806 a7bd b64b 61bd
000003f0: c765 0bbe a74b 053d 8d93 0fbd b158 acbd
0.011944688 -0.03212612 -0.054802433 -0.09020376 -0.103770785 -0.12698753 -0.052581433 -0.014867618
0.036803048 -0.018629892 -0.04000792 0.004485848 -0.0680028 -0.03375922 0.0027499874 -0.07567818
-0.017182434 -0.06596712 -0.13807341 -0.07889693 -0.0741249 -0.078266166 -0.13085799 -0.120137855
-0.0928394 -0.052840557 -0.04702032 0.03458572 -0.061919075 -0.092318825 -0.058333777 -0.10754201
-0.10613188 -0.13648203 -0.061195247 -0.0037093048 -0.092618555 -0.07558873 0.0655969 -0.06263123
0.003494005 0.026847474 0.040976524 -0.005280045 0.02181951 -0.062428746 -0.031050853 -0.034680754
-0.06531843 -0.084446646 -0.084208645 -0.0464485 -0.035425898 -0.015656685 0.11024076 -0.08594533
0.024686746 0.020600447 -0.09847482 -0.14264259 -0.19271964 -0.12055952 -0.13739578 -0.040301513
-0.0040318267 -0.016519245 -0.12012435 -0.08258778 -0.07252786 -0.013472251 -0.041849013 -0.021371415
-0.064524695 -0.105579 -0.06760584 -0.06775549 -0.11284023 -0.08382664 -0.10669321 -0.05715696
-0.08561608 -0.112871625 -0.17933118 0.043589205 -0.018017294 -0.037073098 -0.01806897 -0.016546218
-0.14331001 -0.022292273 -0.12931009 -0.0023605553 -0.05007872 -0.09958338 -0.106815144 -0.17646943
-0.07429463 -0.11133943 -0.013872571 0.017695863 -0.07635016 -0.08874899 -0.07981205 -0.027773652
0.0103369765 0.0037452215 0.01446863 -0.031652268 -0.005137127 -0.013173716 0.0037757673 -0.019473022
-0.008100751 0.020740885 0.025157517 0.004368013 -0.021839486 -0.11361266 0.009616495 0.05171308
-0.014818584 0.050269507 0.04371759 -0.009397965 -0.06110277 0.02720719 -0.01213888 -0.11029661
-0.0640281 -0.07746022 -0.023717001 0.039836124 -0.013392215 -0.037893824 -0.009881268 0.048806258
0.040447515 -0.07227207 0.041276664 0.0002509897 -0.0136419805 0.027031122 -0.015539953 -0.08356279
-0.08576428 -0.07278684 0.017893806 -0.15011461 0.10015203 -0.089787334 -0.10057911 0.049439568
-0.11900025 -0.020813424 -0.07731501 -0.02205919 -0.025758326 -0.10190964 -0.10186737 -0.00013165576
-0.046014663 -0.03889405 -0.020722102 -0.016626328 -0.03901334 -0.10521096 0.0044908323 -0.0055557755
0.018386988 0.026757265 -0.0093098115 0.031252813 -0.005024507 0.00042698238 -0.016549243 -0.079759106
-0.045520548 -0.06048787 -0.049966287 0.00956413 -0.055613954 0.050551564 -0.08527725 -0.01251477
-0.111349955 0.05483298 -0.149114 -0.14220193 -0.066114925 -0.030088173 -0.025653755 -0.017575901
0.046870753 -0.07422144 0.045730144 0.0036303184 -0.0063345116 -0.03767669 -0.051911287 0.02238798
-0.038592674 -0.07346738 -0.022469193 -0.005060328 0.007814733 -0.00056902174 -0.136462 0.0049160817
-0.008960173 -0.054702345 -0.1492575 -0.009594574 -0.013421196 -0.01972619 -0.019422906 -0.068405285
-0.12632562 0.0044936514 0.0047359504 -0.0056409067 0.07574978 -0.076109216 0.011989691 -0.04390255
-0.13159044 0.058467112 -0.016681379 -0.14236009 -0.02097656 -0.08382645 -0.07390676 -0.08700319
-0.16291213 -0.09516183 -0.052571576 -0.047815174 -0.09215648 -0.12925954 -0.032584857 -0.0388819
-0.061179414 -0.021129344 -0.05838546 -0.077095084 -0.042249724 -0.027255103 -0.1940255 0.027441682
-0.024041012 -0.079622924 -0.08155614 -0.055003844 -0.13613044 0.03254285 -0.035052825 -0.08415354

imgconv2.bias f4 [32]
00000000: b395 09be 7625 863d a875 3a3e 3759 503d
00000010: 2593 a63d d9ca a23d 88fc 843e 0927 d03c
00000020: 7a55 da3c aebf 2e3d 89ec fabb d3b2 893a
00000030: 242d c2bd 4022 0c3d 0db0 97bd 74f7 1dbe
00000040: 90ab bdbd 420a d13c e6f6 f9bc 8f0b d7bc
00000050: 5673 d3bc 626c a13e 39e5 043e 97e2 d93c
00000060: 65bd 48bd f913 28bd e9b2 d83d 8acb b8bd
00000070: a1f1 b9bd 0dd2 133d ed8e a8bd a931 acbd
-0.13436012 0.06550114 0.18208945 0.050866332 0.08133534 0.07948846 0.25973916 0.025409238
0.026652087 0.04266327 -0.0076575917 0.0010505564 -0.09481266 0.03421235 -0.07406626 -0.15426427
-0.092612386 0.025517587 -0.030513238 -0.026250629 -0.025811832 0.31528002 0.12978067 0.026597304
-0.049008746 -0.041034672 0.105809994 -0.09023197 -0.0907929 0.036088992 -0.08230386 -0.084079094

fc1.weight f4 [48, 36]
00000000: 60cf 053e 3e1e 70bd 212b 9b3d 9a02 1c3d
00000010: 3c84 d93c 6fd1 8b3d 56b2 11be a7dd 31be
00000020: 8507 24be b62e a43d e4a8 80bd 7f1b 503d
00000030: 5a4c 48bc 22ff eabd 0850 003e 0534 803e
00000040: 8577 de3d fdc3 bdbd 1152 9d3c 6700 f83c
00000050: 0ba6 e63d 26cf 1abe ed5b 26be 0a94 963e
00000060: d6df 893d 5743 1abd a16f 883d f1bf f7bd
00000070: 56bc 5e3d bfb9 da3c 840d 133e 80d7 f93c
00000080: 43f2 91bd 3556 483e 0c25 debd b021 5fbd
00000090: 94ff f63c 08c4 9b3d 7558 0f3d e1dc f43c
000000a0: 981c 41bc 0215 a83d a2ae 1dbc 435a e73d
000000b0: 89b8 a73d 9ff1 af3d 3c97 403e 3809 9b3d
000000c0: 112d 013e 8ed3 82bd 42c5 17be c041 dfbd
000000d0: 36d4 06be c159 933d 806a ddbd 0c3a 483e
000000e0: 759a 3bbd c6f2 16be 0e9b 3e3d db03 79bc
000000f0: e88d f73d 2984 573e ffed 013e 06a3 ff3b
00000100: 4014 593d 16c4 c2bd 1a2f edbd a279 99bc
00000110: eab3 0bbf cda8 ab3f 60a2 333d 42f4 a4be
00000120: 105d d2bc 0d19 93bc 49bc 733d a53d 3e3d
00000130: a7b0 5e3d dd96 a0bd 5f01 cb3d fa4b 11be
00000140: 1db3 4ebe b70f 49be 073d eabc d0d9 afbd
00000150: a6e2 ddbc 15a7 3e3d 3cf9 573b 4589 81be
00000160: 0a97 ff3d 63c3 e23d 0a45 043e c1a9 8fbd
00000170: f646 45bd 6c4b 7b3d 3ce0 02be c2e1 cabc
00000180: e179 4b3d 049e f23d 7f82 e13d 2613 1dbe
00000190: 08bb efbd ac15 673d deb4 d6bd 165f 193d
000001a0: 94d9 17be ac10 abbe 2d01 b4bd 8592 903d
000001b0: 7f77 db3d 83bd f33c 5dc8 05bc 1ce9 3a3e
000001c0: 5d82 8c3c d250 3bbe f864 26be fb1a 5cbd
000001d0: 076c 95bd b6d0 76b8 b368 f4bd 0022 fa3d
000001e0: 95e5 bebd f6f0 61be 7434 623d 3727 31be
000001f0: 74c5 52bd 9cc2 6ebd 665b ec3c 5220 d33d
00000200: 5482 833d a95f f03c 0308 6ebd 13e9 7e3d
00000210: 4b74 8abd b1ff 3d3c a777 15bd ce57 61bc
00000220: d321 e53d ab6d 79bc 10c0 efbc 6b23 ccbd
00000230: 3336 07bb 834a 94bd e2de 963e 534e 7f3e
00000240: 0e27 c03d e817 c4bd caea 1fbe c7ae 27bd
00000250: aacf eabd 2e2f 97bc e7a6 14be 85ac 8cbd
00000260: dfce d9bd 0f01 613c 1d64 14be a645 913d
00000270: f69d c83d 8157 003e 91af 973d ab67 3abe
00000280: 4bb6 11be 1ef1 563d a61d 2abe 2516 4d3e
00000290: 63e9 1d3d 91de 26bd 32a8 25be 869b 943d
000002a0: bf64 50be ea2f b8bd c587 053d 29ea 1cbd
000002b0: 180d cdbc 6b16 5839 0089 2bbe 611e 3f3d
000002c0: 44a2 5cbe 33c9 b13d a3b5 0b3e 1bf7 8dbc
000002d0: c1b7 2a3e 0dbd 4cbd 7d5c 29bc d730 20bd
000002e0: 7ae7 c0bd 986f 4cbc d20f cabd 8111 f43d
000002f0: 0985 06be cd1d 34be 8f7f b13d f09b f73d
00000300: ecc7 fd3c 0ba4 4d3d 27f7 183e bcda 6bbd
00000310: 0bfd 853d b93a 7d3b 313a 37bc a5a0 d53d
00000320: 700b 8bbd 1597 0cbe 9673 0bbe 2129 063e
00000330: 5e68 19bd 4421 423e 3362 14be 3d47 1d3d
00000340: 0222 c83d 3c38 323d de44 913d 8c39 923d
00000350: d554 1cbd 3e11 633d 581f 01be 72de c2bc
00000360: db8d 31bd 53bc 99bc 5e26 39be bd20 6b3d
00000370: 0ff1 01bd e251 f8bd 9882 41be fa2a 6ebc
00000380: 0e9b 3fbe 73da b8bd b8ef 083e a630 43be
00000390: fde8 a33c bc25 b83d 8af3 bdbc cac9 0ebe
000003a0: 049e 563c 6d73 c8bd aac4 57bd 526c f03d
000003b0: 1601 e2bd d58e 3f3c dd37 47be ecfd 573d
000003c0: 90df a63d 57ee 703e 5589 9abc 474b b83d
000003d0: bf40 26be 891e 14be 01a8 debb c00f 143e
000003e0: 6115 ac3b 0a3f 9c3d 0f5c febd e413 7f3d
000003f0: b4ff a2bc f592 7fbd def3 eebb c094 29be
0.13067389 -0.05862259 0.075765856 0.03808842 0.026552312 0.06827056 -0.14228186 -0.1736971
-0.16018493 0.08016722 -0.06282213 0.050807472 -0.012225235 -0.11474444 0.1253053 0.25039688
0.1086264 -0.092658974 0.019204171 0.03027363 0.11262139 -0.15118083 -0.16246004 0.2940982
0.067321464 -0.037661877 0.066619165 -0.12097157 0.05437883 0.026699899 0.14360625 0.030498266
-0.07126286 0.19564135 -0.1084691 -0.054475486 0.030151166 0.07605749 0.03499647 0.02989048
-0.011786602 0.08207132 -0.009624155 0.11296513 0.08189494 0.085910074 0.18807691 0.07570118
0.12614848 -0.06388007 -0.14821342 -0.10901213 -0.1316689 0.071948536 -0.10811329 0.19553393
-0.0458016 -0.14741048 0.04653459 -0.015198673 0.12087613 0.21046509 0.12688445 0.0078014163
0.052997828 -0.09510057 -0.115812495 -0.018734757 -0.545714 1.3410889 0.043856025 -0.32217604
-0.025679141 -0.017956281 0.059505735 0.046445508 0.054367688 -0.07841275 0.09912371 -0.14189139
-0.20185514 -0.19634901 -0.028593553 -0.08586466 -0.027085613 0.04654606 0.0032954952 -0.2530004
0.1247998 0.11072423 0.12916961 -0.070148 -0.048163377 0.061351225 -0.12780851 -0.024765853
0.04967678 0.11846545 0.11011218 -0.15339336 -0.11705595 0.056417152 -0.104837164 0.037444197
-0.14829093 -0.33411157 -0.08789287 0.070591964 0.107161514 0.029753452 -0.008165446 0.18252987
0.017152006 -0.18292549 -0.16249454 -0.053736668 -0.07295995 -5.8845348e-05 -0.11934032 0.12213516
-0.09321133 -0.22064576 0.055225804 -0.17300116 -0.051457837 -0.058291063 0.028852176 0.10308899
0.064213425 0.02934249 -0.05811311 0.062233996 -0.067604624 0.011596606 -0.036491062 -0.013753844
0.11188092 -0.015223901 -0.029266387 -0.09967693 -0.002063167 -0.072407745 0.2946692 0.24932222
0.09382449 -0.09574872 -0.15616909 -0.040938165 -0.1146539 -0.018455114 -0.14516793 -0.06868843
-0.10635161 0.013733163 -0.14491315 0.070933625 0.09795754 0.1253338 0.074065335 -0.18203609
-0.14229695 0.05247604 -0.16612872 0.20027979 0.038552653 -0.0407396 -0.16177443 0.07256226
-0.20350932 -0.08993514 0.032600183 -0.03830925 -0.025030658 0.00020607717 -0.1675148 0.04665983
-0.21546274 0.08680954 0.13643508 -0.017329743 0.16671659 -0.04998498 -0.010336992 -0.039109077
-0.09419151 -0.012477778 -0.09866299 0.11917401 -0.13136686 -0.17589493 0.08666908 0.120902896
0.03097912 0.05020527 0.14938031 -0.05758165 0.06542405 0.0038639738 -0.0111833075 0.10431031
-0.06789291 -0.13729508 -0.13618311 0.13101627 -0.037453048 0.18958002 -0.14490585 0.038398016
0.097721115 0.04351066 0.070932135 0.071398824 -0.03816684 0.055436365 -0.12609613 -0.02378771
-0.043348175 -0.018766558 -0.18081042 0.05740427 -0.031724032 -0.12124993 -0.18897474 -0.014536614
-0.18711492 -0.09026041 0.13372695 -0.19061527 0.020008558 0.08991572 -0.023187418 -0.13944164
0.013099197 -0.09787641 -0.052677788 0.117394105 -0.110353634 0.011691769 -0.19454904 0.052732393
0.0814811 0.2352842 -0.018864313 0.08998733 -0.16235636 -0.14464773 -0.00679493 0.14459133
0.005251572 0.07629211 -0.124199025 0.06227483 -0.01989732 -0.06239601 -0.007292255 -0.1656065

fc1.bias f4 [48]
00000000: 6415 2a3a e5b8 5abe 7d23 6c3d 8eaf 9b3e
00000010: a55e f53d bb25 9abc f846 c7bd 0017 013d
00000020: aef7 533d c8d3 bc3d de83 e13b 75ad 94bd
00000030: e7d3 aabc 705c 64bc 9fb3 863e f6f8 f3bd
00000040: f11f ac3d 3878 9d3e e81f 753e 79a2 103e
00000050: 3106 883d 583c 1e3e 3953 203e 0d24 703e
00000060: 3c6d f0bd b0d0 a2be e592 333d 003c 68bd
00000070: a55d 1ebe f71f afbe fdb3 efbd 2d1b 09bf
00000080: 8ecf 843d 49b8 ee3d a94d 57be f0c5 f2bd
00000090: 90da d43d b4be 4e3e 6392 b53d f8af 563e
000000a0: 839e 94bd aacb d0bc 6f03 433e d948 30be
000000b0: 0800 e8be 6a9d 98bd 8aa0 5cbd 69fb 5cbd
0.0006488173 -0.21359594 0.05765103 0.30407375 0.11980943 -0.01881682 -0.09730333 0.031516075
0.051749878 0.092200816 0.006882175 -0.07259647 -0.020852996 -0.013938054 0.26308915 -0.1191272
0.0840453 0.30755782 0.23937953 0.14124478 0.06641806 0.15452707 0.15656747 0.23451252
-0.11739585 -0.3179984 0.04384126 -0.056697845 -0.1546541 -0.34204075 -0.11704252 -0.5355709
0.064849004 0.11656243 -0.21025719 -0.1185416 0.1039325 0.20189935 0.08865812 0.20965564
-0.07256796 -0.02548774 0.19044279 -0.17215289 -0.45312524 -0.07451899 -0.05386404 -0.0539507

fc2.weight f4 [96, 48]
00000000: 0f9c fd3d 23b5 a8bd c906 90bc f0da 8bbc
00000010: ac4b 9fbd 8ba3 e73d cfd8 193e bb27 a0bd
00000020: b8fa 2dbe c19e 8f3d 213d a33c 5df0 16bd
00000030: 66fb 18bd 4aa1 a43d ff97 b23d e609 0ebe
00000040: 5052 1c3e 38dc 4abe 79e3 e3bb 7c5f d9bd
00000050: 236a 133e 14d8 f83c 0734 013d c9e9 733c
00000060: d36c d1bd 5236 a6bd 37a0 febd c680 4b3b
00000070: 35fa 10be 4293 2dbe 767e 3fbe 641b 7dbb
00000080: 00f2 0dbd f198 4d3e 0f9d 0dbe 14ea 613d
00000090: 3c9f 38be 7e0f 1bbe 840a b0bd df3a a7bd
000000a0: 3aae eb3d 268c c0bc 5fd8 553b 993d 24be
000000b0: 80d9 a0bd de4c b03d 495e b3bd 4387 923d
000000c0: bd58 6abd 759a bdbd 2a08 cabc 3f92 343c
000000d0: df8f 16bd 2260 f13d 3a49 843c 8614 ab3d
000000e0: d043 b3bd 7947 7b3d 2aaf b43c 928e 23bd
000000f0: 7b43 bebd cdba 9abd f4a3 0c3e a53c 87bd
00000100: 5238 abbd 8c60 0a3e d613 fe3b 9f1a a3b9
00000110: 6f11 97bd 07b9 903c f464 13bd eb66 a3bc
00000120: 56a3 d33d 211e 0bbd d01d 2cbe ed5e d23c
00000130: cb2a 93bd b28e 1fbe 2e50 4a3e e855 24be
00000140: 55ec 9fbd 4832 a6bc 7085 74bb 8a2f 8cbc
00000150: a0d6 4bbd 7cef 90bd 265d a7bd 29d1 4dbe
00000160: 1a7e 9d3d 9bfd 98bd 8867 bcbd b828 cebc
00000170: 02a9 c0bd d7d8 d13d 4ad5 80bb 9c8b a2bd
00000180: a768 90bc 9d4b 35be f1a2 23bd b98a 49be
00000190: 4e74 873d d8b5 443d 992b 1f3e 0fc5 7abd
000001a0: 65e9 7fbd 7169 d6bc 72b0 973d 174e 3b3c
000001b0: 4912 f6bc 5cf0 79bd 1395 d93d 8940 b63d
000001c0: 1249 8bbc a736 9e3d d40f 253e 02c0 943d
000001d0: e079 ae3d 7665 e7bd 903f 43be e8ab a8bd
000001e0: c9aa a1bc 5bfc 15be a692 39bc 3b27 423e
000001f0: 2045 5bbe 2430 45bd c3b0 dfbc 8ae8 ffbd
00000200: 1798 efbd 6cb5 9fbd 9500 bcbd d34f 0fbd
00000210: 926b 5d3d 2f49 30be eddc 04be 3b41 9cbd
00000220: a41e 43be a75c 60be 2ecd 393d 43f2 73bd
00000230: b0a6 0dbe 82d2 78bd e4ca e23d cabd 353e
00000240: 0aaf 05bd 43f4 51be 2f65 90bd d254 d3bd
00000250: fb62 e6bc 978a 99bd 6e37 15be 132e 4c3c
00000260: e8d8 debb b29e 563e 0ed4 e2bc 3738 91bd
00000270: 376e 553d f7ef 87bd 5232 203c e47d 273d
00000280: 7492 b23d 09db 1d3e 5798 4bbe 2cb3 1dbe
00000290: d08b adbd 38be fdbd cbbe 3b3d 8cf4 1fbe
000002a0: e96e af3d 770a 4cbe c8e3 bf3d fe6b 293c
000002b0: f734 7b3c 2f85 9bbd bea0 b23d dcad b7bd
000002c0: 0777 013c e94d 513e 2aa0 1cbe 8c0e 05be
000002d0: aaac aa3c 9276 093d ab4b 05bd 4174 b03d
000002e0: f360 f73d a189 9dbd 5809 2dbc ac5f 03be
000002f0: 65d8 d8bc 0d7b 753c ef11 6dbd f28e 2c3e
00000300: 566c 7abd c8a9 cfbd b849 06bc 617b 05bd
00000310: f34f cfbd 08c7 3abc fe0c 153e 6b06 083d
00000320: 1fed 1abd 6930 20be 42eb 233e 0fb6 bebd
00000330: 107c a5bc d064 943d 6cfa 25be 7020 283c
00000340: 3535 c53a b449 373e 5d4b 38be 33a8 e7bd
00000350: 0f87 2c3d a7b4 b03d db8a 95bd 769c a9bd
00000360: 4aab 4b3d 00b0 9ebb 53bf 76bd b445 0a3e
00000370: 7279 f3bd 415c 9fbd 99d5 613c 6ebf dc3c
00000380: 9ac8 48bd 8437 383e cfc9 20be e105 a23c
00000390: 8c14 6f3d fd72 bc3c e9a9 f1bd f234 98bd
000003a0: 7bdd ea3d 8e9f 533d d0c7 85bd b85e 2dbd
000003b0: 6d57 12be c82b 01bd 5b62 bb3d 8e01 cf3c
000003c0: 5c57 9b3d 8bb5 c3bd 8074 253c 70ab 2ebd
000003d0: 084f b1bc 2907 a0bd dd59 debc 484c 683c
000003e0: 25dd b33c 842d 88bb 497b 8bbd f35d a23d
000003f0: c633 063e 8882 a0bd 79ef 8e3d 0f09 aabd
0.123832814 -0.08237674 -0.01758136 -0.017072171 -0.07778105 0.1131049 0.15024112 -0.07820078
-0.16990173 0.07012702 0.01992661 -0.036850322 -0.037349127 0.08038576 0.08720397 -0.13870963
0.15265775 -0.1981057 -0.006954607 -0.10613915 0.14395957 0.030376472 0.031543758 0.014887282
-0.10225835 -0.081158295 -0.12432902 0.0031052097 -0.14157946 -0.16950706 -0.18700585 -0.0038621062
-0.034654617 0.20077874 -0.13829444 0.055154875 -0.18029493 -0.15142629 -0.08595756 -0.08165526
0.115078405 -0.023504328 0.0032630188 -0.16039123 -0.07853985 0.08608411 -0.08758218 0.071547054
-0.057213534 -0.09257976 -0.024662096 0.011021196 -0.0367583 0.11785914 0.016148198 0.08353524
-0.087531686 0.06134746 0.022056181 -0.039930888 -0.09290215 -0.07555161 0.13734418 -0.06603364
-0.083603516 0.13513392 0.0077538295 -0.00031109617 -0.07376372 0.017666353 -0.03598495 -0.019946536
0.10333888 -0.03396428 -0.16808248 0.02568003 -0.071858965 -0.15581778 0.19757149 -0.16048396
-0.07808749 -0.020287648 -0.003731098 -0.017112512 -0.04976523 -0.07076928 -0.081720635 -0.2009932
0.076900676 -0.074702464 -0.091994345 -0.0251659 -0.09407236 0.10246437 -0.003931676 -0.079367846
-0.017628027 -0.17704625 -0.039950315 -0.19681825 0.0661398 0.048024982 0.15543975 -0.061223086
-0.06247844 -0.026173325 0.07406701 0.011432192 -0.030038016 -0.06102024 0.10624137 0.08899028
-0.017002616 0.07725268 0.16119319 0.07263185 0.085193396 -0.11298649 -0.19067216 -0.082359135
-0.019734757 -0.14647047 -0.011326468 0.18960278 -0.21413088 -0.048141614 -0.027305966 -0.12495525
-0.11698931 -0.07798275 -0.091797985 -0.034988236 0.054057665 -0.17215417 -0.12974901 -0.07629629
-0.19054657 -0.21910344 0.04536169 -0.05955721 -0.13833117 -0.06074763 0.110738546 0.1774818
-0.032637633 -0.20503335 -0.07050549 -0.103189126 -0.02812337 -0.07497137 -0.14571926 0.012462157
-0.0068007596 0.20958975 -0.027689006 -0.070908 0.052107062 -0.066375665 0.009777622 0.040891543
0.0871934 0.15415587 -0.19882332 -0.1540038 -0.08473933 -0.12389797 0.04583625 -0.15620631
0.08566076 -0.19925867 0.09369618 0.010340689 0.015332452 -0.07593762 0.087220654 -0.08968708
0.0079019135 0.20439877 -0.15295473 -0.1299383 0.020834286 0.033560343 -0.032542866 0.08615924
0.120790385 -0.07692266 -0.01056131 -0.12829465 -0.026470372 0.014982951 -0.05787843 0.16851404
-0.061138473 -0.10139805 -0.008196287 -0.032588366 -0.10122671 -0.011399992 0.14555737 0.033209246
-0.037823793 -0.15643467 0.16007712 -0.09312069 -0.02020076 0.07245791 -0.1620881 0.01026164
0.0015045764 0.1789921 -0.17997499 -0.11311378 0.04212099 0.08628207 -0.07301875 -0.08281796
0.0497239 -0.004842758 -0.060241055 0.13503152 -0.11888398 -0.07781268 0.013783836 0.02694675
-0.049019434 0.17989928 -0.15701984 0.019778194 0.058369204 0.02300405 -0.11799986 -0.074319735
0.11468025 0.051665835 -0.06532252 -0.04232666 -0.14291163 -0.031535894 0.09149619 0.025269296
0.07585022 -0.09556111 0.010098577 -0.042643964 -0.02164413 -0.07813866 -0.02714246 0.014178343
0.021956036 -0.0041558165 -0.06810624 0.07928076 0.13105687 -0.07837397 0.069792695 -0.08302509

fc2.bias f4 [96]
00000000: 67de 0fbe b750 363e 7976 b93d 4952 013f
00000010: 372a 0b3f 5d5b ce3e 0904 44be f755 56be
00000020: 8a9f d1be e940 38bb 0399 5cbd 6499 e33e
00000030: 514c d63d df56 703e 3ae4 823d dc9b 6dbe
00000040: 1f75 a33e 84b9 22bc 4629 77bb 701c 343f
00000050: a320 95be 1eeb be3d 8386 d63d 4782 c0be
00000060: 7381 9ebe d109 2dbe d111 f63e a1f5 943d
00000070: 3a5e 063f 6ecb c0bb b073 10bf cdfa 5a3e
00000080: 089d 1f3f 46d1 8d3d 6e45 98be 79f7 78be
00000090: 4d29 debd b4a2 e7bc 7140 bcbe 16ba 443f
000000a0: 9cf3 08bf eb31 cebd c81f 78be 5473 f8bd
000000b0: 2c56 c23e 7438 02bd 3777 aebe 06c5 03bd
000000c0: b221 47be ff24 80be f6bc 0cbe e927 5a3e
000000d0: 3c1e b13e d69f 9c3e 38ef 14be 3d99 183f
000000e0: f633 e6bc 361c 06be a830 cfbe 6643 f7bc
000000f0: 30ca 0e3d 47e0 1a3f de1d 6ebe 9b6c dc3e
00000100: fb79 dd3c cd7e babd 1ba8 35be c05b 223f
00000110: ec79 37bf 1a7b 063f 6e56 f53d 0556 f63c
00000120: 24d0 adbc 18d6 c23e 958c da3e 60a4 d43d
00000130: 845c 3fbe 6937 213e 2153 693f b507 223f
00000140: d3ea 61be a201 ddbd 0c5f 11bf 7fcf b03e
00000150: 0c7b f7bd 65bf 84be d1fc 1c3f 8cb8 93be
00000160: e771 cd3d 5b84 26be 5d0a ea3e 41d3 9bbd
00000170: 2692 9bbc 85c5 7f3e 9f88 213e 5e65 223f
-0.14049684 0.17804228 0.090558 0.5051618 0.5436129 0.4030408 -0.19142164 -0.2093123
-0.4094203 -0.0028114861 -0.05385686 0.44452965 0.10463775 0.23470639 0.06391187 -0.23203987
0.31925294 -0.009931926 -0.003771381 0.7035589 -0.29126462 0.09322189 0.10474875 -0.37599394
-0.30958137 -0.16898276 0.48060468 0.072734125 0.5248753 -0.0058836257 -0.56426525 0.21384735
0.62348986 0.06924681 -0.2974047 -0.24313153 -0.10847721 -0.028275825 -0.36767915 0.76846445
-0.5349672 -0.10068115 -0.24230874 -0.12131372 0.3795637 -0.03179212 -0.3407533 -0.032170318
-0.19446447 -0.25028226 -0.13743958 0.21304287 0.3459338 0.30590695 -0.1454438 0.59608823
-0.028100949 -0.13096699 -0.4046681 -0.030183505 0.03486079 0.6049847 -0.23253581 0.4305161
0.027035704 -0.091062166 -0.17739908 0.6342125 -0.71670413 0.5253159 0.11979376 0.030070314
-0.021217413 0.38053966 0.4268538 0.103829145 -0.18687636 0.15743794 0.9114247 0.6329301
-0.22062235 -0.10791327 -0.56785655 0.34533307 -0.12084016 -0.25927272 0.6132327 -0.28851736
0.10031491 -0.16261427 0.45711032 -0.07608653 -0.018990587 0.24977691 0.15774773 0.63435924

fc3.weight f4 [48, 96]
00000000: 61ee 71bd d9cf bbbd ed50 afbb 3c4e 8a3c
00000010: adb6 38be a234 c43c a8ec dcbc 99f7 923c
00000020: cff8 b8bd 2467 31bb c478 85bd f77b 84bd
00000030: 3457 9cbd d883 99bd cf6c 2abd 584b d9bd
00000040: d4e4 733c d348 01bd 81cd 883c 2b67 56bd
00000050: 4cf0 ac3d 8297 44bc 6ced d8bd 4ea2 a1bd
00000060: 1dc6 6abd e2f8 50bc 6033 7f3d 22d6 7dbd
00000070: 42fa a5bc 58e0 d73c 7060 c63b ed62 e33d
00000080: a6ff 39be 53d5 bcbd 3bb3 00bd be3b 66bd
00000090: 0ed1 93bd e4d3 c3bd 18c7 503c 5dbc b0bc
000000a0: 0f57 9abd fccb f3bd 361c cabd 9274 e2bb
000000b0: 262a 9bbd 05eb 06be b5a0 0bbc 3930 ddbd
000000c0: 467b adbd 96d2 feba b741 8abb 20d0 a5bd
000000d0: e7e0 c9bd 52a3 f1bc 481e 923d f75f 4cbd
000000e0: a470 953d 84fd 1abd 2d2d 1fbe 1b06 dfbd
000000f0: 6566 1bbe 7f7b fdbd 40c6 19bd 3028 a63b
00000100: 2e0d b3bd 0eaf 0cbe 2d46 2ebc 2978 643c
00000110: 5abe c0bd 26fd cabd ed52 0f3c 6b5c 2abd
00000120: 4f3d 4ebd d50a c73b 7b32 613d 5abc a33d
00000130: 8f20 2cbe 28b7 33bd ab97 01be 1969 ee39
00000140: e8cb 42bd 9463 173d 52df 13be 7cd9 ac3b
00000150: 0e40 55bd bdda 32bd 71a8 96bd 1a06 c33b
00000160: 3fb8 1f3d b2d7 2ebe 38a4 8dbd d5e4 18be
00000170: d871 91bd 0466 c33c 8a0d e6bd 5747 833c
00000180: 76c3 48bb d6e6 57be dcdf af3d 22f1 83bd
00000190: d9fe 52be 7f03 7cbd d9bf 8fbd 3d02 97be
000001a0: aecf 74bd 4cd1 353d 3d30 283d 223e 11be
000001b0: 417c 0e3e 3940 9bbe 7ccd 3e3e 9b69 a0bd
000001c0: c169 9d3c d59b b33d af98 8f3d 95b5 163d
000001d0: 5e24 5c3d a1dc a1bd fc28 09be 711a dfbd
000001e0: 7ae7 883d b3ac e3bd a8b5 f7bd 4cf6 3abe
000001f0: afe2 66bd 6d8a 47be f1ba 043e 311b 413e
00000200: c39d 96be 879f 12bc 4bd4 24bd 7b4a 0abe
00000210: 1f41 e93b 5ebe bbbd 9865 06be cb97 02be
00000220: 3ce3 613c e73d 9abd c4b8 1f3d a547 66bd
00000230: f601 71bd 82f2 05be 6d59 1e3d edb1 32be
00000240: 616d da3c 31d9 083e 615a f6bc c961 05be
00000250: 5292 fdbd 95bb fcbd 761d 03bb 4618 063d
00000260: ccce 99bd 36cd b6bc 04fd 1ebe 7664 3fbe
00000270: c14a 83be dd3b 24be 9648 a4bd 1b5b 42bd
00000280: f6f2 bf3d 9520 a8bd b7af c2bc ac62 1a3e
00000290: be0a a6bd d047 3abc 28ef 30be 04dd 8abb
000002a0: 2392 20be 0950 a7bd 0a25 203d 82a2 e53b
000002b0: e1e4 f7bd c6a5 c83c a334 03be e255 893d
000002c0: 0157 bcbd ddff 94bc b6fb 08be ebc1 1a3d
000002d0: 2ee2 fc3c dc11 983c d4b7 d1be 6188 f4bd
000002e0: 54c4 eebd c58e 8fbe ccfd b4be 69f6 c0bd
000002f0: 676f a1bd 49d0 5fbd 6d00 74be bb10 e3bd
00000300: f035 c3bd 7e94 0c3c ec29 a13d 89ad 99bb
00000310: c694 c33d e199 c4bb f6da 513d 00f9 81bd
00000320: 2eeb f3bd 18df 97bb e3bf cabc 9a10 313d
00000330: 93c1 8d3c 40f9 51bc 65d6 533c 49d6 15bd
00000340: 4530 a43d 6920 40bd 1fd7 bdbd b624 03bc
00000350: db2c 3abd 0630 3abe 8f3b 41be 0271 56bd
00000360: 90d4 0abe 3d17 18bd 2123 3b3d 3db7 323d
00000370: 40f6 8ebd 00bb aabd 4227 0bbd 4999 9bbc
00000380: 7290 14bd 9e60 ccbd 7878 1d3b 1822 e33b
00000390: 13f7 5b3c 5127 4f3c 59bf b4bd 4a04 2ebd
000003a0: adf9 e7bd 8181 1cbc 2e7b f8bd ad59 f0bd
000003b0: adc6 38bb 3cb2 bdbc 7c33 41be cfb1 b33d
000003c0: 2ff4 bdbd d987 5fbe 0ccf 37bd e421 423b
000003d0: fae7 9cbd f8d9 f6bc 870b d63b ea86 02be
000003e0: 5327 26bd 0758 54be 3aca 95bd c35d d53d
000003f0: e690 833d d7e0 6c3d 6391 263d 7a83 1d3d
-0.059065226 -0.09170503 -0.0053502233 0.016883008 -0.18038435 0.023950879 -0.026968315 0.01794033
-0.090318315 -0.0027069533 -0.06517175 -0.06468957 -0.0763382 -0.0749585 -0.041607674 -0.10610074
0.0148861 -0.03156359 0.016699554 -0.052344482 0.084442705 -0.011999013 -0.1059216 -0.07892285
-0.05731784 -0.012754651 0.062304854 -0.06197179 -0.020260934 0.026352093 0.0060539767 0.11102853
-0.18163928 -0.09220376 -0.031420927 -0.05620932 -0.072176084 -0.09561899 0.01274278 -0.021574194
-0.07536136 -0.11904141 -0.09868662 -0.006910869 -0.075763986 -0.1317559 -0.008522202 -0.10800213
-0.08470778 -0.0019441422 -0.0042192596 -0.08096337 -0.0985735 -0.029496823 0.07134682 -0.049896207
0.07296875 -0.037839428 -0.15544577 -0.108898364 -0.15175779 -0.12377071 -0.03754258 0.0050707087
-0.08742748 -0.13738653 -0.010636848 0.013944664 -0.09411307 -0.099115655 0.008747798 -0.041592043
-0.050351437 0.0060742893 0.054979783 0.079949096 -0.16809295 -0.043875843 -0.12655513 0.000454732
-0.04755774 0.0369602 -0.14440659 0.0052749496 -0.05206304 -0.043665636 -0.073563464 0.005951655
0.03899407 -0.17074469 -0.06916088 -0.14931042 -0.07101792 0.023852356 -0.11233051 0.016025228
-0.0030634082 -0.2108415 0.0858762 -0.06442477 -0.20605029 -0.06152677 -0.07019014 -0.29493895
-0.05976837 0.044389054 0.04106163 -0.14183858 0.13914587 -0.30322435 0.18633074 -0.07832643
0.019215466 0.08769957 0.07011544 0.036794264 0.05374562 -0.0790341 -0.1339454 -0.10893715
0.06684776 -0.11116924 -0.12095195 -0.18258017 -0.056368526 -0.19486399 0.12961937 0.18858029
-0.29417238 -0.008949167 -0.04024152 -0.13504975 0.0071183587 -0.09167169 -0.13124692 -0.12753217
0.013787087 -0.07531338 0.038994566 -0.05622067 -0.05883976 -0.1308079 0.0386595 -0.17450686
0.026663484 0.13364102 -0.030072393 -0.13025583 -0.12381424 -0.12340466 -0.0020006574 0.032737993
-0.075101465 -0.02231465 -0.15526205 -0.18690667 -0.2564297 -0.16038461 -0.08021657 -0.047450166
0.09372513 -0.082093395 -0.023765428 0.15076703 -0.08107518 -0.0113696605 -0.17278731 -0.004237773
-0.15680747 -0.08169562 0.039097823 0.007007898 -0.12104202 0.02449311 -0.12813048 0.06705834
-0.09196282 -0.018188411 -0.1337727 0.03778259 0.03086957 0.018563204 -0.40960562 -0.11940075
-0.1165854 -0.28038612 -0.35349882 -0.09421999 -0.078825764 -0.054641996 -0.23828287 -0.110871755
-0.09531772 0.008580325 0.07869324 -0.0046898765 0.09549861 -0.005999789 0.051234208 -0.06346321
-0.11910091 -0.004634749 -0.024749702 0.043228723 0.017304217 -0.0128157735 0.012929534 -0.03658131
0.08017019 -0.04690591 -0.09269547 -0.008004358 -0.045452934 -0.18182382 -0.18870376 -0.052353866
-0.13557649 -0.037131537 0.0456878 0.04363178 -0.06980562 -0.08336449 -0.033972986 -0.01899399
-0.036270566 -0.09979366 0.0024028104 0.0069315545 0.013425606 0.012643651 -0.08825559 -0.04248456
-0.11326919 -0.0095523605 -0.1213287 -0.11735854 -0.0028194592 -0.023156278 -0.18867296 0.08774149
-0.0927509 -0.21829166 -0.04487519 0.0029622251 -0.076614335 -0.030133232 0.006532136 -0.12746778
-0.040564846 -0.20736705 -0.07313962 0.10418274 0.064241216 0.05783161 0.040665995 0.038455464

fc3.bias f4 [48]
00000000: 7fb4 babd 81c4 57bd 9a9e ed3e b5ec 96be
00000010: 3259 f83e 1e33 ef3e 158d 75be 604d a2bd
00000020: 61d9 493f 802e 0bbe 79b0 033f 1307 4f3d
00000030: 823f 943d 41c1 ef3e 93cd c63e 427e 7e3e
00000040: 0cc1 3e3f 6b28 563f 3c98 253e 1d56 82be
00000050: b02b 1a3e 6d14 243f fdc5 883d 4319 0d3d
00000060: 91ff 0e3d 10cb 883f db83 373f a641 2d3d
00000070: bdb2 1a3e 192c 68bb be95 2ebd bd9d 4d3f
00000080: d235 7d3d 9d68 a7bd 2cf3 073f ed58 f6bd
00000090: 69ab 793f 8b4a 9c3e f746 9e3d eefa 603e
000000a0: dda5 a1bd 9db2 aa3e d5f2 a23e 58ad 343e
000000b0: 1818 853c e27e 89bd 46ce 893f dd2d 8e3f
-0.09116458 -0.052677635 0.46410066 -0.29477468 0.4850555 0.46718687 -0.239796 -0.07924914
0.7884732 -0.13591957 0.5144115 0.050543856 0.07238676 0.4682713 0.38828716 0.24852851
0.74513316 0.8365542 0.16171354 -0.25456324 0.15055728 0.6409367 0.06678388 0.03444792
0.034911696 1.068697 0.7168557 0.042298935 0.15107246 -0.0035426675 -0.042623274 0.80318815
0.061818905 -0.0817425 0.53105426 -0.1202868 0.97527176 0.30525622 0.07728379 0.21970722
-0.07892964 0.33339396 0.3182589 0.1764425 0.01624684 -0.06713654 1.0766075 1.1107746

fc4_1.weight f4 [1, 48]
00000000: 2061 853c 453b 903d 8074 d6bb 1c78 a7bc
00000010: 4823 a6bc 347c ccb9 6603 13bc dee2 c63c
00000020: d8bb c9bc 126c bd3c 709e fa3a cead ac3d
00000030: 4b12 e03c 8238 863c 61b3 9eba 527a 983c
00000040: 768a bfbc 1138 d1bc dc52 bf3c 233b fb3c
00000050: 30a5 12bd e775 99bb 6217 d33c d480 543d
00000060: 2108 5f3d 016d 0fba e182 823c 5517 693d
00000070: 32d7 0c3d 3315 113d f2bf 973c 4ae5 32bb
00000080: 9c7d 8b3d 6a6e 383d 30d1 563a 083c b93c
00000090: 8d2f e8b9 4022 c1bb 1965 3f3c d961 a33c
000000a0: 8949 d13c fafd 7e3c 6885 e6ba ea78 f0bc
000000b0: 5d0d fdbc f75c d23c d31d 09bb d62e 11ba
0.016281664 0.07042555 -0.0065446496 -0.020443015 -0.020280495 -0.0003900245 -0.008972978 0.0242781
-0.024625704 0.023122821 0.0019120704 0.08431588 0.027352473 0.016384367 -0.0012107902 0.018613014
-0.023381453 -0.02553943 0.02335494 0.030667847 -0.035802066 -0.0046832445 0.025767986 0.051880673
0.05445111 -0.000547126 0.015931549 0.056907017 0.034384914 0.035420608 0.018524144 -0.0027297311
0.068110675 0.045027174 0.00081946235 0.022611633 -0.00044285916 -0.0058939755 0.011681818 0.019944118
0.02554776 0.015563482 -0.0017587366 -0.029354531 -0.030890161 0.025679095 -0.0020922318 -0.000553829

fc4_2.weight f4 [1, 48]
00000000: 7c0a 1b3d ed76 843e 4ac2 3abe bf75 ad3d
00000010: e910 6bbe b12e afbe d06b 453d 4e1d 8c3c
00000020: dd02 42be 6770 3a3d 3ea9 39be 65f6 4c3e
00000030: 6960 473d c327 3bbd 978f 7dbe 5132 90bd
00000040: 9387 1bbe 98fb 53be ccda 95bc 2a2e 113d
00000050: 3f40 0b3d 0e70 38be f40d 2cbc 3b4b 873b
00000060: c6e8 a53d 87f0 afbe d6b9 afbd cab9 a33d
00000070: 9af1 b73b 71c3 2b3c d42c a73c 9dfa 6fbe
00000080: 7e29 083e 3470 603d ad55 25be 6955 a33c
00000090: ac6f 94be 147f 45be 4e1f 5e3b f3df d8bc
000000a0: d09f 273c 8e1d e7bd b28a 40be b225 2cbe
000000b0: 6fd3 ddbd 9464 733c 39f4 8ebe 6fce 60be
0.037851796 0.25871983 -0.18238178 0.08469724 -0.2295567 -0.3421531 0.04819852 0.017103817
-0.18946405 0.04551735 -0.18130967 0.20015867 0.04867593 -0.045692217 -0.24761806 -0.07040847
-0.15188436 -0.20701444 -0.018292807 0.035444416 0.033996817 -0.18011495 -0.010501374 0.004128841
0.08101039 -0.34363195 -0.08580367 0.07994421 0.005613518 0.010483609 0.020407118 -0.23435445
0.13297078 0.054794505 -0.16145964 0.019938188 -0.2899145 -0.19286758 0.003389317 -0.026473975
0.010230973 -0.11284934 -0.18802908 -0.16811255 -0.108313434 0.014855523 -0.27920702 -0.21953748
