output/uncertainty_model_epoch10.pth (torch, 82849 bytes, 12 tensors)

imgconv1.weight f4 [24, 5, 3, 3]
000000 62 2f 2c 3d c1 f8 38 3d ec cf 42 bc ca 8a 9e bd
       0.042037375 0.045159105 -0.011890393 -0.07741316
000010 cb 2f 1e bc 8f ff 41 3d bc b6 31 3d c0 15 97 bc
       -0.009654949 0.04736286 0.04338716 -0.018442988
000020 2d bd 80 bd 65 b6 c3 3d d4 a9 b1 bd 1a 15 da bd
       -0.062860824 0.09556273 -0.0867497 -0.10648556
000030 56 69 0e be a3 7f 7e bd 4a f4 17 be 37 bf f8 3b
       -0.1390737 -0.062133443 -0.14839283 0.007591154
000040 e6 b3 3d 3d 13 d3 d1 bc 0b fa bb 3b a9 68 0a bc
       0.046314143 -0.025613343 0.0057365946 -0.0084478045
000050 9b 07 c0 bc a4 57 f8 3d 44 38 62 bd 5d 8a e5 bd
       -0.023441127 0.12126091 -0.05522944 -0.11208031
000060 2d 8c 07 bc ff f6 fe bd ed ab 4f 3c 5a 9b 5a bf
       -0.008273167 -0.124494545 0.012675268 -0.853933
000070 20 a1 7e bf 8a 2b 18 bf 7a a2 33 bf 75 13 5c bf
       -0.9946461 -0.59441435 -0.70169795 -0.8596719
000080 d3 a4 94 be b2 fd 20 be 14 ea 60 bf 54 ba 52 bc
       -0.29032 -0.15721777 -0.87857175 -0.012861807
000090 29 5d a9 3d 10 55 8a 3e ed 97 a2 3e 5d 5b c6 bd
       0.08269722 0.27018023 0.31756535 -0.09685395
0000a0 dc e1 37 3e 85 af 06 3f a2 31 94 3d d8 1d 7c be
       0.17957252 0.5261157 0.07236029 -0.2462076
0000b0 5e f9 4f 3e 99 3a c9 bd da be 86 be d1 3a 53 bd
       0.2030997 -0.0982563 -0.26317483 -0.051569764
0000c0 90 68 4c be 5c e8 43 be ea e2 8a bd 15 51 69 bd
       -0.19961762 -0.19131607 -0.06781562 -0.05696209
0000d0 02 5f 51 bd 97 c4 f1 bd 29 2f ab bd f3 6b 37 be
       -0.051115997 -0.11805075 -0.083586045 -0.17912273
0000e0 e9 8c a1 bc 15 62 d1 bd 35 61 de bd 86 75 c4 bd
       -0.019720512 -0.10223786 -0.108583845 -0.09592728
0000f0 89 2d ef bd 40 07 5e be e8 6e 46 be ed 6c 33 be
       -0.11678607 -0.21682453 -0.19378245 -0.1752202
000100 db 50 6b 3c e9 9b ac bd 64 7c 26 be f4 8d 1a be
       0.014362539 -0.08428175 -0.16258389 -0.15093213
000110 97 52 27 3d 28 4f f5 bd a8 19 f8 bd ec e1 a3 be
       0.04085025 -0.119779885 -0.121142685 -0.32008302
000120 52 de 30 c0 1b 80 10 c0 b1 e3 29 c0 44 0e eb bf
       -2.7635694 -2.257819 -2.6545222 -1.8363729
000130 db 7b 4e bf 25 14 fb bf 3f 0f fd bf cb aa b0 bf
       -0.8065774 -1.9615523 -1.9770278 -1.3802122
000140 13 61 1b c0 ed 56 32 c0 68 b5 2f c0 58 f5 10 c0
       -2.4278 -2.7865555 -2.7454472 -2.2649746
000150 8f 6b d2 bf b7 d2 ac bf c5 d1 e8 bf 07 8a a4 bf
       -1.6439074 -1.3501805 -1.8189017 -1.2854623
000160 72 e3 48 bf 17 75 d9 bf e9 c5 06 3e 26 e0 95 3c
       -0.78472054 -1.6988858 0.13161434 0.018295359
000170 24 f1 ec bd 0c 83 ae 3d 4d 76 20 be 91 ff 78 3d
       -0.115694314 0.08521089 -0.15670128 0.060790602
000180 be 95 01 3b ff 63 1d bc a8 f0 81 bd 54 81 f3 bd
       0.0019773091 -0.00960636 -0.0634473 -0.11889902
000190 35 20 ed bc 2e 7e be 3d 63 8c 6e 3d 72 b2 1c bd
       -0.028946022 0.093014106 0.058239352 -0.038256116
0001a0 68 28 63 3e a9 d5 ea 3c 2c e6 14 3e 54 6b 07 be
       0.22183383 0.028666334 0.14540929 -0.13224536
0001b0 c0 73 a2 bc 7c ed 2c be 11 0a 3e bc bf e7 36 bd
       -0.019830585 -0.16887468 -0.01159908 -0.044654604
0001c0 aa 47 a8 bd 35 2b 08 3c fa 4a 3a bd ce 7b 52 3e
       -0.08216794 0.008311083 -0.04548166 0.2055504
0001d0 0e df 7d bd f9 68 5a bf c2 fb e6 be 5d d6 a6 bf
       -0.0619803 -0.85316426 -0.4511395 -1.3034168
0001e0 60 f9 d0 be 83 8f 78 3f ca 7a 3a 3e ad 12 dd be
       -0.40815258 0.9709398 0.18210903 -0.4317831
0001f0 de 17 6f 3f 41 fa df 3e 6d 99 05 bf d9 ac 18 be
       0.93395793 0.43745616 -0.52187234 -0.14909686
000200 1e 7a 44 bf 2e ac 36 bf 2a 77 02 3f 10 f7 c0 be
       -0.76748836 -0.71356475 0.5096308 -0.37688494
000210 6b 30 1c bf 35 ef 14 be d2 fc 87 bd 87 cf 30 bd
       -0.6101138 -0.14544375 -0.066400185 -0.043166663
000220 61 9d c1 3d 47 14 26 be 0c 91 fc bb b8 20 f7 bd
       0.09453846 -0.16218673 -0.0077077206 -0.120667875
000230 f5 61 eb bc 8d 56 00 3e 0a 4d 48 3e 78 e2 68 3c
       -0.028733233 0.12533017 0.19560638 0.014214151
000240 f5 5c bf bd 63 81 49 3d 37 10 0c be 3f db 18 bc
       -0.09343902 0.04919566 -0.1367806 -0.009329616
000250 63 a5 bf 3d db 05 7f 3e c9 53 26 3d 34 09 39 3d
       0.09357717 0.24904577 0.040607248 0.045174792
000260 14 f1 00 be a4 ba 15 3c f8 d0 f8 bc bb 88 94 bc
       -0.12591964 0.009138737 -0.030373082 -0.018131604
000270 c1 3d 93 bb 4b 13 db 3d c3 99 78 3c 20 3a 5d bd
       -0.0044934456 0.10697039 0.015173378 -0.05401051
000280 fb ec 27 3e 0c 41 17 be 91 e1 1c 3f 60 dd da 3e
       0.16398995 -0.14770907 0.6128169 0.4274702
000290 65 bd 9e 3f 33 c1 b2 bf 76 5d 18 c0 b9 1c 0c bf
       1.2401549 -1.396521 -2.3807044 -0.5473133
0002a0 55 0d de bf 58 64 42 c0 c8 02 81 bf 19 0f 93 3f
       -1.7347819 -3.0373745 -1.0078974 1.1488982
0002b0 a5 bb 6e 3f 18 78 cf 3f e2 37 dc 3e d5 6a 8d bd
       0.9325507 1.6208525 0.43011385 -0.06905142
0002c0 5e 50 be 3f 0e 4d 11 3e 20 1a 23 be 23 ec 99 3f
       1.4868276 0.1418955 -0.15927935 1.2025188
0002d0 0e 74 0e 3d e1 39 2b 3e 9f ca 80 3c 80 6c 3b be
       0.034778647 0.16721298 0.015721617 -0.18303108
0002e0 96 73 c8 3d a7 36 8f 3d d8 f3 c9 3d 59 e2 d9 3c
       0.09787671 0.06992846 0.09860963 0.026597189
0002f0 ee d0 0f 3d 36 6f af 3d 06 b6 34 3d 53 42 1e 3e
       0.03511136 0.08566134 0.044118904 0.15454988
000300 de c0 1a 3d df b2 00 3e d5 54 f0 3b 0b b0 1f bd
       0.03778159 0.12568234 0.0073343315 -0.038986247
000310 1f e4 f8 3d 82 d5 20 3e f5 b5 78 3e 46 2e 3e 3e
       0.12152886 0.15706447 0.24288161 0.1857234
000320 77 74 31 3e 1d 78 c8 3d 9b 3f 02 be c2 76 c6 bd
       0.17329584 0.09788535 -0.12719576 -0.0969062
000330 5b af 21 3e d1 ca 3a 3d f5 69 87 3d 43 c0 e0 bf
       0.15789549 0.045603577 0.066120066 -1.7558674
000340 37 f0 dd bf 5c cd 24 be e4 42 26 c0 3a 1c 40 c0
       -1.7338933 -0.16093963 -2.5978327 -3.0017228
000350 53 8f ab bf f6 fa 15 c0 37 cf 27 c0 38 1c aa bf
       -1.3403114 -2.3434424 -2.6220224 -1.3289862
000360 32 46 b9 be 45 e8 b2 be 24 5b 7b 3f 3f 11 8e bf
       -0.36186367 -0.34942833 0.98185945 -1.1099013
000370 b0 ab 8b bf 4e ab 46 3d 22 37 1e bf 60 bc 7b bf
       -1.091177 0.048503213 -0.61802876 -0.9833431
000380 0a 25 0c 3e 71 50 16 ba 5a fd d7 bd 1c e0 98 bd
       0.13686004 -0.00057340326 -0.1054637 -0.074646205
000390 6e f1 40 bc c2 d9 99 3d 97 6e df bd 18 96 15 3e
       -0.011776311 0.07512237 -0.10909765 0.14608037
0003a0 c4 2b 29 3e 8d 04 f7 3b f9 d3 18 3c bc 07 9e 3c
       0.16520602 0.0075383843 0.009327882 0.019290797
0003b0 4c 72 09 3d 98 1e 13 bd 36 a9 3b be 01 dc 86 3d
       0.033556268 -0.03591785 -0.18326268 0.06584931
0003c0 a4 4e 2e 3d 65 31 8b bb 56 e1 1c bb 61 46 46 3c
       0.042555466 -0.0042478316 -0.0023938022 0.012101741
0003d0 b4 4d 06 3e 34 88 11 bd 04 d6 f4 bd e6 dc 0f bc
       0.13115579 -0.035530284 -0.11954883 -0.008780694
0003e0 60 c7 28 bd c1 09 ce 3c c1 2a 62 3d 4d f0 3d bd
       -0.041205764 0.025151135 0.055216555 -0.046371747
0003f0 50 f4 94 bd 21 ca 5d 3e d7 88 9b 3e e8 8a 3b bf
       -0.072731614 0.21659137 0.30377838 -0.7325883

imgconv1.bias f4 [24]
000000 0d 65 94 be b9 27 a6 bf f6 1f 83 bf 33 9a 74 3e
       -0.28983346 -1.2980872 -1.0244129 0.23886947
000010 33 70 b4 be 10 2d 43 bf 81 b4 d9 be f4 9c 43 bf
       -0.3524185 -0.76240635 -0.42520526 -0.76411366
000020 97 71 b9 bf a4 36 48 be 33 4a 89 bf 3d 9d f7 be
       -1.448779 -0.19552094 -1.0725769 -0.4836215
000030 cd 57 7b be e5 a2 32 bf 6b 0c 2c bf f8 45 80 bf
       -0.24545212 -0.6977981 -0.6720645 -1.0021353
000040 7f 1c 6a bf 29 7e ab 3d 96 9a 4f 3e 91 17 a5 bf
       -0.9144973 0.083736725 0.20273814 -1.2897817
000050 eb 2b 3f bf fb 1a 8c be 50 27 2c bf 4e 7c ec be
       -0.7467639 -0.27364334 -0.67247486 -0.46188587

imgconv2.weight f4 [32, 24, 3, 3]
000000 d9 34 11 bd e0 e5 c5 bd e4 03 f0 bd a5 3d fa bd
       -0.03545079 -0.09662986 -0.11719492 -0.12218789
000010 d7 6f 17 be c6 06 02 be a1 5f 57 bd b7 0e 04 bd
       -0.14788757 -0.12697896 -0.052581433 -0.032240596
000020 89 d5 1d 3d 23 08 b0 bc 0d a0 51 bd 9a 24 18 bd
       0.03853372 -0.021488255 -0.051178027 -0.03714428
000030 02 94 8d bd fe 1e 0c bd a9 a0 19 bc 29 fd 9a bd
       -0.06912996 -0.034209244 -0.009376683 -0.07567818
000040 4f 1f 25 3a c5 19 87 bd a4 bc 19 be 2c 6d c8 bd
       0.0006298916 -0.06596712 -0.15013367 -0.09786448
000050 82 02 98 bd 17 7b 01 be ab 67 21 be 5a 65 01 be
       -0.07422353 -0.12644611 -0.15762202 -0.12636319
000060 5a 0b ff bd 27 0b a6 bd d7 57 25 bd c3 31 7e bb
       -0.12453337 -0.08107596 -0.040366974 -0.0038786985
000070 5e 28 84 bd a7 11 bd bd 66 ef 6e bd bb be dd bd
       -0.06453012 -0.092318825 -0.058333777 -0.108273946
000080 7a 9a da bd f2 c1 0b be 3a 7e 7c bd cf 17 73 bb
       -0.10673995 -0.13648203 -0.061643817 -0.0037093048
000090 25 41 c9 bd 38 eb 9f bd 2b a7 cc 3c 0f 4a a3 bd
       -0.098268785 -0.07808536 0.024982056 -0.0797311
0000a0 c7 9f 2e bd 41 3f 3d 3c 6f 2f 0e 3d 43 af e5 bb
       -0.042632844 0.011550725 0.034713205 -0.007009418
0000b0 17 35 38 3c 49 b5 7f bd 23 c8 e3 bc f3 10 73 bd
       0.011243126 -0.062428746 -0.027805394 -0.059342336
0000c0 e2 cc 80 bd 0e 9f 00 be a7 07 f4 bd c8 40 3e bd
       -0.06289078 -0.12560675 -0.11915522 -0.0464485
0000d0 f0 89 89 bd 00 14 11 bc 05 c0 c0 3c 43 dc 0d be
       -0.067157626 -0.008854866 0.023529062 -0.13853554
0000e0 be a7 e4 bb c9 33 7d bd e9 30 1d be e6 10 12 be
       -0.0069780042 -0.061816964 -0.15350689 -0.14264259
0000f0 4c 58 45 be 43 5c 2f be 55 22 2d be dd 4d 93 bd
       -0.19271964 -0.17125039 -0.16907628 -0.071925856
000100 25 99 12 bd 5e 39 b1 bc 2b aa f9 bd 6b 78 9c bd
       -0.03579058 -0.0216338 -0.1219066 -0.076401554
000110 9d 4d a0 bd 12 5a 85 bc 20 6a 25 bd 1b 13 af bc
       -0.078273036 -0.0162783 -0.04038441 -0.021371415
000120 86 25 84 bd c6 8e d5 bd a2 19 b5 bd f3 cf 8a bd
       -0.064524695 -0.104276225 -0.0884278 -0.067779444
000130 f5 fd 13 be ec d7 aa bd f8 81 da bd 6e 2c 6a bd
       -0.14452346 -0.08341965 -0.10669321 -0.057171278
000140 d2 f0 ef bd eb a3 01 be 67 e3 7e be a4 9c 77 bc
       -0.11715855 -0.12660186 -0.24891435 -0.01511303
000150 06 97 9f bd 36 13 86 bd ff 79 a9 bd 11 55 85 bd
       -0.07792477 -0.06546633 -0.08275222 -0.06510366
000160 40 f6 24 be eb 85 e0 bc 95 99 08 be 75 ca 5e bd
       -0.16109562 -0.027407607 -0.13339837 -0.054392297
000170 d5 b4 92 bd 5f f2 cb bd 28 37 c7 bd 67 b4 34 be
       -0.07163397 -0.09958338 -0.09727317 -0.17646943
000180 df f0 d8 bd f2 b6 e0 bd c8 49 63 bc f4 2e 5b bc
       -0.105928175 -0.10972394 -0.013872571 -0.013377894
000190 79 5d 9c bd 08 c2 b5 bd 20 9c 87 bd 92 47 ed bc
       -0.07635016 -0.08874899 -0.06621575 -0.028964791
0001a0 61 83 ad 3b 64 72 75 3b c3 43 17 bd 35 e3 17 bb
       0.0052952026 0.0037452215 -0.036929857 -0.0023176197
0001b0 58 55 a8 bb d6 52 56 bc dd 72 77 3b 5f 34 a1 bc
       -0.005137127 -0.013081273 0.0037757673 -0.019678293
0001c0 c8 6c 02 bd a6 f7 43 3c 23 17 ce 3c 16 55 37 3b
       -0.031842023 0.011960899 0.025157517 0.00279743
0001d0 b9 e8 b2 bc c1 ad e8 bd 09 85 1e 3c 0e f3 3e 3d
       -0.021839486 -0.11361266 0.009675273 0.046618514
0001e0 4f 13 3c bd 10 18 4f 3d 0b f7 34 3d ec f9 19 bc
       -0.04591685 0.050560057 0.04418091 -0.009397965
0001f0 4d 25 7c bd e5 7c ea 3c 27 e2 46 bc 30 e3 e1 bd
       -0.06155901 0.028624007 -0.01213888 -0.11029661
000200 2a 21 83 bd dc 11 9f bd 2e bd 62 bd 34 2b 23 3d
       -0.0640281 -0.07767078 -0.055356197 0.039836124
000210 05 6b 5b bc 8e 36 1b bd 0b e5 21 bc f0 c0 54 bc
       -0.013392215 -0.037893824 -0.009881268 -0.012985453
000220 fd cb bc bc 61 03 94 bd 77 70 1c 3c 44 97 83 39
       -0.023046488 -0.07227207 0.009548298 0.0002509897
000230 9d 82 5f bc 5f 70 dd 3c 49 9b 7e bc f8 22 ab bd
       -0.0136419805 0.027031122 -0.015539953 -0.08356279
000240 c2 ae b4 bd 1b 0b 95 bd be 6e 8c 3c a5 b7 19 be
       -0.08822395 -0.07277509 0.01714265 -0.15011461
000250 82 20 5f 3d 6c e2 b7 bd 6c fc cd bd fe 48 44 3d
       0.05447436 -0.089787334 -0.10057911 0.047921173
000260 67 b6 f3 bd 1f 17 ad bc 6b 62 df bd 24 67 5a bd
       -0.11900025 -0.021129189 -0.109074436 -0.05332102
000270 81 5d 6a bd 7a 8f 28 be 95 a9 27 be 83 53 a9 bb
       -0.05721808 -0.16460982 -0.16373284 -0.005167426
000280 19 29 a9 bc 5e 4f 1f bd c7 fc 0a bd eb 39 ce bc
       -0.02064948 -0.03889405 -0.033932474 -0.025174102
000290 dd 7e 96 bd d8 78 d7 bd 3c ce 6e bd 5d 22 88 bd
       -0.07348416 -0.10521096 -0.05830215 -0.06647179
0002a0 0b eb c7 bc 30 61 e2 3c 49 ec 1d bc 9a ab ff bc
       -0.02440407 0.027634233 -0.009638854 -0.031209756
0002b0 e6 bb c9 bd 95 a7 0b b9 43 97 45 bd 02 34 e4 bd
       -0.09850292 -0.00013318502 -0.048239958 -0.11142732
0002c0 c1 73 3a bd 21 c2 77 bd 73 a9 4c bd de b2 1c 3c
       -0.045520548 -0.06048787 -0.049966287 0.00956413
0002d0 75 cb 63 bd 77 bf 97 3c 20 71 cc bd c0 0a 4d bc
       -0.055613954 0.018523915 -0.099825144 -0.01251477
0002e0 f5 4c e4 bd 96 54 bb 3c 57 b1 18 be 62 9d 11 be
       -0.11147491 0.022867482 -0.149114 -0.14220193
0002f0 43 67 87 bd 79 7b f6 bc 0b 26 6b bd 12 67 0a bc
       -0.066114925 -0.030088173 -0.057409327 -0.008447425
000300 ad 26 4d 3c 1c 8a b2 bd 4c 5d 30 bc 27 b7 33 bb
       0.012521428 -0.087177485 -0.010764431 -0.00274224
000310 f4 d5 1d bd 14 6c 10 bd 51 22 b2 bd 86 ed 2c bc
       -0.03853412 -0.03525932 -0.086979516 -0.010554677
000320 c6 7a 8c bd 2b 03 e9 bd 92 c4 c0 bc eb 0f 87 bc
       -0.06859355 -0.11377557 -0.023531232 -0.016487082
000330 6d 65 ca 3b 4d 1d f4 3c 6b 65 d7 bd f3 0f 88 3b
       0.0061766417 0.029799128 -0.10517391 0.004152292
000340 ce 5f 74 bc 98 60 b0 bd f5 d6 18 be b1 63 4e bd
       -0.01491542 -0.08612174 -0.1492575 -0.050388042
000350 c6 fd 95 bc c7 7a bc bc 27 c4 b0 bc 12 18 8c bd
       -0.018309485 -0.023007764 -0.021577908 -0.068405285
000360 07 81 1e be a9 a1 65 3e 0b b5 89 3d 5c a9 ce 3e
       -0.15478908 0.2242495 0.06723984 0.40363586
000370 59 e3 71 3e ce c8 76 be aa 98 73 3e ce cf b7 3d
       0.23621882 -0.24100038 0.23788705 0.089751825
000380 73 81 0c 3e 7c 5e 67 3e 29 9d 42 3e fe 2b 36 3e
       0.13721256 0.22594637 0.19005264 0.17790219
000390 1d b4 8d 3e 97 ac 2e be 5f a8 d2 3c 05 5c a3 3e
       0.27676478 -0.17058025 0.025715051 0.31906143
0003a0 6e 08 94 3d b6 48 3c 3e 4b 8e a8 be 8d 27 06 bd
       0.0722817 0.18387112 -0.3292106 -0.032752562
0003b0 2b ed 93 3d 38 da cd 3d 1b 83 0b 3d e0 84 73 3e
       0.072229706 0.100513875 0.03406058 0.23781157
0003c0 81 6c 4e 3e 63 d7 8b bd 28 bc 91 be f3 a1 4e 3e
       0.20158578 -0.06828191 -0.28463864 0.20178966
0003d0 2f da 54 3e 87 df 20 3e f6 54 85 3e 67 84 72 3e
       0.20786355 0.15710269 0.26041383 0.2368332
0003e0 a3 ec c1 3e 63 d6 c7 bd e0 26 87 3d c5 4c 03 3e
       0.37875852 -0.09757688 0.06599212 0.12822254
0003f0 a7 b7 34 bd a4 ee 8f bd 05 87 80 bd 4b 97 ef bd
       -0.044120457 -0.07027939 -0.06275753 -0.11698779

imgconv2.bias f4 [32]
000000 50 c4 7b be b9 fc 01 3f e5 16 39 3e a2 80 05 3d
       -0.24586606 0.5077625 0.1807514 0.032593377
000010 6e 00 7a 3e a4 5c 00 be 09 3d 86 3f 6e ef 4c be
       0.24414226 -0.1253534 1.0487376 -0.2001321
000020 51 9b eb be 27 12 72 3e 94 2d bd bd 11 ab 5b 3e
       -0.46016935 0.23639737 -0.09237209 0.21451975
000030 9e 56 36 3f 15 18 f9 3e f9 f6 12 bc 66 e6 c4 3e
       0.7122592 0.48651186 -0.008970016 0.3845703
000040 01 34 b6 3e 2e bd 2f 3f 45 4d 14 3f 91 13 16 be
       0.3558655 0.6864804 0.57930404 -0.14655901
000050 9b 17 ce 3e e2 c0 75 3f c3 1e 0e 3f 10 af 12 3f
       0.40252385 0.9599744 0.5551569 0.57298374
000060 ff eb 87 3e 87 2e 7f bd db 0a 8b 3e 23 a9 61 3f
       0.26547238 -0.06230023 0.2715672 0.8814871
000070 3e a6 91 3e 2f 8c 04 bf 49 06 e7 3e 2f dd d5 3e
       0.28447145 -0.51776403 0.45121983 0.41770312

fc1.weight f4 [48, 36]
000000 60 cf 05 3e 04 2a e8 bd 18 43 65 3d 9a 02 1c 3d
       0.13067389 -0.11336139 0.05597219 0.03808842
000010 50 14 c2 3b 6f d1 8b 3d 17 60 46 be fa 26 87 be
       0.0059228316 0.06827056 -0.19372593 -0.26396924
000020 0f b6 79 be a9 50 ca 3c e4 a8 80 bd 14 d7 f1 3c
       -0.24385856 0.024696665 -0.06282213 0.029521503
000030 a3 4f 84 bd 82 42 0b be 7d 92 bf 3d fc 68 4b 3e
       -0.06460502 -0.1359959 0.09354112 0.19864267
000040 30 dc ae 3d 25 99 e6 bd 88 09 11 bd 67 00 f8 3c
       0.08538091 -0.11259679 -0.03540948 0.03027363
000050 f1 89 bb 3d 76 1e 62 be f4 85 57 be 82 e4 62 3e
       0.091571696 -0.22081932 -0.21047193 0.22157481
000060 32 c1 3e 3d 57 43 1a bd c6 bd ba bc 18 9c 0f be
       0.046570964 -0.037661877 -0.02279557 -0.14024389
000070 70 9e 55 b7 b6 44 9e bb 8d c7 b8 3d 1b 66 43 3c
       -1.2732678e-05 -0.0048299683 0.09022436 0.011926199
000080 6e 3f 19 be e7 c6 ee 3d 88 4a 41 be 4c e8 08 be
       -0.14965603 0.11659031 -0.18876088 -0.13369864
000090 d8 d5 29 bd 1a 7a c0 3b 83 1a 3f bd 4c ce 75 bc
       -0.041463703 0.0058739306 -0.046656143 -0.015002798
0000a0 a9 0e 9f bd ac a1 96 bd c0 b5 af bc 6b b9 7b 3e
       -0.07766468 -0.07355055 -0.02144897 0.2458245
0000b0 39 1e 8b 3e b3 26 79 bd 68 50 d2 3d 85 a9 36 3e
       0.27171496 -0.060827922 0.102692425 0.17838104
0000c0 e2 0c 04 be 1a a6 6e be 33 6f 76 bd db 21 26 be
       -0.1289554 -0.2330555 -0.06016464 -0.16223852
0000d0 f1 45 34 bd 6e ed ad bd 2d b9 6e 3e 30 dd 28 3d
       -0.044012014 -0.08492552 0.23312826 0.041226566
0000e0 c3 b7 c0 3c bb 8b 71 3d 9d 11 f5 bd aa 7f 7d bd
       0.023525124 0.058971148 -0.1196625 -0.061889328
0000f0 a1 fa 82 bd 5f 60 68 3e ae 9e 5e be 91 a4 88 be
       -0.0639546 0.22693013 -0.21740219 -0.26688054
000100 b2 7c 15 bd 8f 22 16 3e fb 43 a6 3d d2 80 39 be
       -0.03649587 0.1466162 0.08118435 -0.18115547
000110 26 57 3e c0 93 92 81 40 6c d0 09 bf 5a d8 be bf
       -2.974069 4.0491424 -0.5383365 -1.4909775
000120 10 5d d2 bc 4e a9 4b bd 49 bc 73 3d a5 3d 3e 3d
       -0.025679141 -0.04972201 0.059505735 0.046445508
000130 09 d4 17 3d dd 96 a0 bd cf 93 41 3d 7a 08 5b be
       0.037067447 -0.07841275 0.047260102 -0.21389952
000140 1d b3 4e be b7 0f 49 be 07 3d ea bc d0 d9 af bd
       -0.20185514 -0.19634901 -0.028593553 -0.08586466
000150 65 95 b9 bd 04 29 72 3c d4 2b e7 bc 55 f9 9f be
       -0.09061698 0.014780287 -0.028219141 -0.31244913
000160 05 bf be 3d f9 b4 a1 3d b5 7b c7 3d c1 a9 8f bd
       0.09313778 0.07895846 0.09740392 -0.070148
000170 e1 b1 a3 bd 41 40 b8 3c d4 01 2e be 5f 51 98 bd
       -0.07992912 0.022491576 -0.16992885 -0.07437395
000180 1b ba 92 3c 04 9e f2 3d 2c 8f 15 3d 26 13 1d be
       0.017911008 0.11846545 0.036513492 -0.15339336
000190 bb 64 18 be d7 e0 08 3c a2 e1 0b be 16 5f 19 3d
       -0.14882176 0.008354387 -0.13660291 0.037444197
0001a0 d4 fa 4f be 31 70 c3 be ab 7f 17 be 0c 0f 8a 3c
       -0.20310527 -0.38171533 -0.14794795 0.016852878
0001b0 7f 77 db 3d a9 7b 7f 3c c2 2d c0 bc 1c e9 3a 3e
       0.107161514 0.015593448 -0.023459319 0.18252987
0001c0 4f 41 b7 3a d2 50 3b be 00 52 35 be 8e e4 cb bd
       0.0013981255 -0.18292549 -0.17707062 -0.09955703
0001d0 e6 da b0 bd 4d 21 cc bc b3 68 f4 bd 6c 8a dd 3d
       -0.086355016 -0.024918223 -0.11934032 0.108174175
0001e0 ad 25 dd bd 8b c3 70 be d4 5b 30 3d a5 74 42 be
       -0.10798202 -0.23512094 0.043056324 -0.18989809
0001f0 f5 d3 84 bd a2 64 9d bd 42 4d 7b 3c 52 20 d3 3d
       -0.0648574 -0.0768521 0.015338244 0.10308899
000200 56 95 40 3d ed 8e 61 3c 55 3c 86 bd 2b 62 45 3d
       0.047017418 0.013766986 -0.06554476 0.048189323
000210 2a 58 a0 bd b1 ff 3d 3c 47 bc 8b bd bc 51 ed bc
       -0.07829316 0.011596606 -0.068230204 -0.028969638
000220 c2 04 c8 3d ab 6d 79 bc ad 47 36 bd 0e 12 ea bd
       0.097665325 -0.015223901 -0.04450195 -0.11429225
000230 c1 38 81 bc f3 c9 b7 bd ea 00 99 3e d8 27 6a 3e
       -0.015774133 -0.08974066 0.2988351 0.22866762
000240 0e 27 c0 3d e8 17 c4 bd ca ea 1f be c7 ae 27 bd
       0.09382449 -0.09574872 -0.15616909 -0.040938165
000250 aa cf ea bd 2e 2f 97 bc 4e de e8 bd fc 61 c1 bd
       -0.1146539 -0.018455114 -0.11370526 -0.09442517
000260 7a 0b 07 be 0f 01 61 3c 1d 64 14 be a6 45 91 3d
       -0.13187972 0.013733163 -0.14491315 0.070933625
000270 b4 2d 94 3d 81 57 00 3e 9a 40 46 3d ab 67 3a be
       0.0723528 0.1253338 0.048401453 -0.18203609
000280 4b b6 11 be 1e f1 56 3d a6 1d 2a be 25 16 4d 3e
       -0.14229695 0.05247604 -0.16612872 0.20027979
000290 63 e9 1d 3d b9 f0 87 bd 94 72 41 be e4 ea 3f 3d
       0.038552653 -0.06637711 -0.18891364 0.04685487
0002a0 bf 64 50 be ea 2f b8 bd 8c b9 dd 3b 29 ea 1c bd
       -0.20350932 -0.08993514 0.0067665037 -0.03830925
0002b0 18 0d cd bc 80 44 01 bd 00 89 2b be 61 1e 3f 3d
       -0.025030658 -0.031559467 -0.1675148 0.04665983
0002c0 6b a8 79 be c6 e1 77 3d 2a 9b e0 3d d5 a7 36 bd
       -0.24380653 0.06051805 0.10967095 -0.04459365
0002d0 c1 b7 2a 3e 34 6c 4c 3d c6 0f 4d bd d7 30 20 bd
       0.16671659 0.049907878 -0.05006387 -0.039109077
0002e0 fc b9 5e bd 98 6f 4c bc 3b c4 5f be 94 d4 4e bd
       -0.054376587 -0.012477778 -0.218522 -0.0504957
0002f0 bd a7 a7 be 4e 0f dc be 8f 7f b1 3d f0 9b f7 3d
       -0.32745162 -0.42980427 0.08666908 0.120902896
000300 89 9f 02 bc 17 73 9b bc 5f e1 e8 3d 9e 14 8b be
       -0.007972606 -0.018975778 0.11371111 -0.27164167
000310 51 42 89 3e 2e 96 86 bd 76 4a 22 be e1 84 a8 3d
       0.26808408 -0.06571613 -0.15848717 0.0822847
000320 c7 f8 e3 bd 87 3d 86 be ad c2 36 be 9c f7 94 bc
       -0.11131435 -0.26218817 -0.178477 -0.018184476
000330 88 8b 03 3c 44 21 42 3e f3 98 ba be 8b ed 87 3d
       0.008028872 0.18958002 -0.36444816 0.066371046
000340 fc 22 b4 bd 62 0e 6c bd c2 de 21 3d b6 aa 94 bb
       -0.08795735 -0.057630904 0.03951908 -0.004536952
000350 9b 67 a6 be 91 aa 88 bd 50 55 5b be 43 92 05 be
       -0.3250092 -0.06673158 -0.21419263 -0.13044076
000360 db 8d 31 bd 97 66 0c bd 5e 26 39 be bd 20 6b 3d
       -0.043348175 -0.034277525 -0.18081042 0.05740427
000370 5d 06 82 bd e2 51 f8 bd 53 a7 6f be b9 42 7d bd
       -0.0634887 -0.12124993 -0.23403673 -0.06183121
000380 f6 52 37 be 73 da b8 bd b8 ef 08 3e a6 30 43 be
       -0.17902741 -0.09026041 0.13372695 -0.19061527
000390 21 0d 87 bc bc 25 b8 3d 5f 7e 5b bd 94 2e ef bd
       -0.016485753 0.08991572 -0.053587314 -0.11678806
0003a0 fe e9 98 bc dc c0 04 be 7f 7c b2 bd 52 6c f0 3d
       -0.018666264 -0.12964195 -0.08715152 0.117394105
0003b0 eb 86 11 be 51 f0 f6 bc cb ea 6a be 1f 28 36 3d
       -0.14211623 -0.030143889 -0.22941129 0.044471856
0003c0 80 ad 20 3d 57 ee 70 3e 26 e7 89 bd 90 6c 36 3d
       0.039227962 0.2352842 -0.06733541 0.044537127
0003d0 d7 c7 46 be 79 cd 3a be fb 58 e0 bb 25 11 e7 3d
       -0.1941217 -0.18242444 -0.006846545 0.11282567
0003e0 7c 0b 9d bd 55 d3 ee 3c 85 7f 42 be ef bd ad 3c
       -0.07668206 0.029153505 -0.18993957 0.021208731
0003f0 b4 ff a2 bc 7a 72 05 be de f3 ee bb c0 94 29 be
       -0.01989732 -0.1303195 -0.007292255 -0.1656065

fc1.bias f4 [48]
000000 89 5d a0 bd ab f5 b0 bf 5e e2 6b 3b 07 0e 94 3e
       -0.078303404 -1.3824972 0.003599308 0.28916952
000010 ca c0 be 3d 7c 5e f9 bd 73 06 10 be ff 03 9b bd
       0.09314115 -0.121762246 -0.1406496 -0.075691216
000020 93 f9 91 39 31 54 79 bc 91 9c 15 bd 58 ea 31 be
       0.00027842502 -0.015217827 -0.036526266 -0.17374551
000030 74 6d d4 bc 9a d7 04 be 3b 3d 3f 3e d7 65 24 be
       -0.025931098 -0.1297287 0.18675701 -0.16054474
000040 f1 1f ac 3d 9d 04 78 3e e8 1f 75 3e 5f 10 4c 3e
       0.0840453 0.2422051 0.23937953 0.1992812
000050 70 9c b5 3b 93 61 10 3e cf 03 06 3d 6c f2 1c 3e
       0.0055423304 0.14099722 0.032718476 0.15326852
000060 d8 2b 2d be cd f3 e7 bf 48 42 2a 3c 00 3c 68 bd
       -0.16911256 -1.8121277 0.010391779 -0.056697845
000070 3b 23 48 be b0 65 20 c0 3f 58 18 be 2e d9 05 c0
       -0.1954469 -2.5062065 -0.14877413 -2.0913806
000080 14 64 92 bd 87 da 55 3d 8c f9 01 c0 02 ff 03 be
       -0.07147995 0.052210357 -2.0308561 -0.12890247
000090 99 c1 dd 3c 83 e8 11 3e 2e 05 d1 3c a8 90 eb 3d
       0.027069854 0.14248852 0.025515165 0.115022
0000a0 83 9e 94 bd 8c fd db bd 35 7c 22 3e dd 1d 50 be
       -0.07256796 -0.107417196 0.15867694 -0.20323892
0000b0 f4 b4 06 c0 6a 9d 98 bd 42 98 10 be ee 85 c1 bd
       -2.1047945 -0.07451899 -0.14120582 -0.09449373

fc2.weight f4 [96, 48]
000000 1e 94 bc 3d 92 07 44 be c9 06 90 bc f0 da 8b bc
       0.092079386 -0.19143513 -0.01758136 -0.017072171
000010 ac 4b 9f bd 21 57 93 bc 3a 28 1c 3e 78 27 a0 bd
       -0.07778105 -0.017985882 0.1524972 -0.07820028
000020 b8 fa 2d be 93 e0 12 bc a5 59 aa 3d 5d f0 16 bd
       -0.16990173 -0.0089646755 0.083178796 -0.036850322
000030 66 fb 18 bd 39 b6 a5 3d de cf b0 3d 6a 03 14 be
       -0.037349127 0.08091397 0.086333975 -0.14454427
000040 50 52 1c 3e 38 dc 4a be 79 e3 e3 bb 0f 51 98 bd
       0.15265775 -0.1981057 -0.006954607 -0.07437336
000050 23 6a 13 3e 14 d8 f8 3c 3e f3 af 3b d4 e5 e5 bc
       0.14395957 0.030376472 0.005369573 -0.028063692
000060 c7 b2 06 be 1a 1f a0 bd 55 d7 1f be c6 80 4b 3b
       -0.13154136 -0.07818432 -0.15609486 0.0031052097
000070 31 f1 00 be d9 e1 6b be 76 7e 3f be c9 fe 1d bc
       -0.12592007 -0.23035373 -0.18700585 -0.009643265
000080 41 31 17 bd 66 ee 86 3e d8 e3 52 be 14 ea 61 3d
       -0.036912207 0.2635376 -0.20594728 0.055154875
000090 3c 9f 38 be 89 16 f5 bd 84 0a b0 bd 7a 98 ad bd
       -0.18029493 -0.11967189 -0.08595756 -0.08476348
0000a0 3a ae eb 3d 26 8c c0 bc b4 7e e9 bc 99 3d 24 be
       0.115078405 -0.023504328 -0.0285028 -0.16039123
0000b0 bd 40 3c be de 4c b0 3d 49 5e b3 bd 22 9e cb 3d
       -0.1838407 0.08608411 -0.08758218 0.09942271
0000c0 bd 58 6a bd 72 e0 68 be 2a 08 ca bc 3f 92 34 3c
       -0.057213534 -0.22741869 -0.024662096 0.011021196
0000d0 df 8f 16 bd 02 41 0e bb 97 44 7c bc f3 a4 24 3d
       -0.0367583 -0.0021706228 -0.0153972125 0.04019637
0000e0 d0 43 b3 bd 93 b9 c8 bc e8 11 1f bc 4b 4c a0 bc
       -0.087531686 -0.024502551 -0.009708859 -0.01956763
0000f0 7b 43 be bd 64 f5 9a bd 5d 88 12 3e ff 80 a9 bd
       -0.09290215 -0.07566336 0.14309831 -0.08276557
000100 52 38 ab bd a3 b3 d3 3d d6 13 fe 3b 77 20 03 bd
       -0.083603516 0.10336997 0.0077538295 -0.032013383
000110 6f 11 97 bd 8a fe 66 bc 32 e6 9f bc 75 c0 89 bd
       -0.07376372 -0.014098773 -0.019518945 -0.067261614
000120 2f 5a a5 3d d4 46 b9 bd d0 1d 2c be ed 5e d2 3c
       0.08073842 -0.090467125 -0.16808248 0.02568003
000130 50 49 cf bd a6 bc 87 be 2e 50 4a 3e b2 d8 a8 bd
       -0.10121405 -0.26511115 0.19757149 -0.08244456
000140 74 d9 de bd 48 32 a6 bc c3 13 d2 bd 8a 2f 8c bc
       -0.1088132 -0.020287648 -0.102576755 -0.017112512
000150 a0 d6 4b bd 7c ef 90 bd 8e 06 1a be e1 74 65 be
       -0.04976523 -0.07076928 -0.15041563 -0.22407867
000160 1a 7e 9d 3d 9b fd 98 bd 88 67 bc bd b8 28 ce bc
       0.076900676 -0.074702464 -0.091994345 -0.0251659
000170 c6 4d 16 be d7 d8 d1 3d 4a d5 80 bb 6e 9c 9c bd
       -0.14678106 0.10246437 -0.003931676 -0.07647024
000180 a7 68 90 bc ee 5c 7c be 04 28 06 bc b9 8a 49 be
       -0.017628027 -0.24644825 -0.008188251 -0.19681825
000190 4e 74 87 3d 0d 0d 35 ba a6 73 07 3e d3 58 14 bc
       0.0661398 -0.0006906547 0.1322771 -0.0090543805
0001a0 65 e9 7f bd 64 8f 80 bc 96 c5 ac 3d b4 97 d4 3d
       -0.06247844 -0.015693374 0.08436124 0.103804976
0001b0 ff 19 57 bc 60 45 07 bd 47 9a 94 3d 48 79 2f 3e
       -0.013128757 -0.033025146 0.072559886 0.17136109
0001c0 12 49 8b bc 96 31 e2 3d d4 0f 25 3e 14 b2 b8 3d
       -0.017002616 0.11044614 0.16119319 0.09018341
0001d0 e0 79 ae 3d 76 65 e7 bd af 0d 3f be ad 1b 2b 3d
       0.085193396 -0.11298649 -0.18657564 0.04177444
0001e0 15 5c 97 3d 45 58 36 be 94 19 d0 bc 3b 27 42 3e
       0.0739061 -0.1780711 -0.025402822 0.18960278
0001f0 ea 39 83 be 7c fa 85 bd 27 e4 70 bd fa 08 10 bd
       -0.25630122 -0.06541917 -0.058811333 -0.03516481
000200 d7 26 52 3d 6c b5 9f bd 8e b2 5a be f1 54 93 bc
       0.05130657 -0.07798275 -0.21357176 -0.01798484
000210 9c c0 af 3d 2f 49 30 be 52 05 c3 bd 61 fa 10 3c
       0.08581659 -0.17215417 -0.09522499 0.0088487575
000220 a4 1e 43 be 77 d5 3f be 04 f5 9d 3d 43 f2 73 bd
       -0.19054657 -0.18733774 0.07712749 -0.05955721
000230 8e 37 af bc 82 d2 78 bd 08 ee e0 3d c6 36 15 3e
       -0.021388795 -0.06074763 0.10982901 0.14571676
000240 0a af 05 bd c4 f4 b8 bd 2f 65 90 bd d2 54 d3 bd
       -0.032637633 -0.0903106 -0.07050549 -0.103189126
000250 fb 62 e6 bc 63 6b 19 bd dd 1a 06 be 9b 71 78 3c
       -0.02812337 -0.037455928 -0.13096185 0.015163804
000260 e8 d8 de bb 87 76 48 3e 0e d4 e2 bc eb a3 e1 bc
       -0.0068007596 0.19576465 -0.027689006 -0.027543982
000270 12 de 49 3d 62 39 0c 3b 55 56 9b bc 84 ab f8 3d
       0.04928405 0.0021396508 -0.018962065 0.12142089
000280 74 92 b2 3d 09 db 1d 3e 57 98 4b be 52 4c 39 be
       0.0871934 0.15415587 -0.19882332 -0.1809552
000290 d0 8b ad bd 38 be fd bd 8e 70 6d 3d 07 30 e9 bd
       -0.08473933 -0.12389797 0.05796867 -0.113861136
0002a0 66 68 a8 3d bd e9 1d be 89 30 0d 3d fe 6b 29 3c
       0.082230374 -0.15421195 0.034470115 0.010340689
0002b0 ed 97 ca 3c 09 46 07 be af a8 f3 3d e6 ff c1 bd
       0.024730647 -0.1321031 0.11897408 -0.09472637
0002c0 04 b2 f5 bd dd 4c 51 3e 5b 41 00 bd 19 c1 0d be
       -0.119968444 0.20439477 -0.031312328 -0.13843192
0002d0 aa ac aa 3c a6 bb ef 3c b6 08 c7 3d 82 c6 9d bb
       0.020834286 0.029264282 0.09718458 -0.0048149237
0002e0 f3 60 f7 3d 0f 98 de bd 33 5f 2d bd ac 5f 03 be
       0.120790385 -0.108688466 -0.042327117 -0.12829465
0002f0 97 95 a3 bc 0d 7b 75 3c bd ad 46 bd c6 15 4d 3e
       -0.019968791 0.014982951 -0.048505533 0.20027837
000300 3b 43 be bd 86 bf fc bd 9b f6 3b bb 61 7b 05 bd
       -0.09290167 -0.12341218 -0.0028680924 -0.032588366
000310 f3 4f cf bd 1a dd 63 be d0 61 22 3e 8d b4 fd 3c
       -0.10122671 -0.22252312 0.15857625 0.030969882
000320 1f ed 1a bd cc 18 cc bc d1 f4 1a 3e b7 10 12 be
       -0.037823793 -0.024914168 0.15132453 -0.14264189
000330 f7 68 54 bd 0e db 12 3e ad 67 1d be 87 8b 77 3d
       -0.051857915 0.14341375 -0.1537158 0.060435798
000340 35 35 c5 3a 63 38 57 3e 5d 4b 38 be 73 05 5d be
       0.0015045764 0.21017604 -0.17997499 -0.2158411
000350 0f 87 2c 3d a7 b4 b0 3d a0 14 42 bd e5 71 e0 bd
       0.04212099 0.08628207 -0.04738295 -0.10959224
000360 d7 ed 10 3d 25 af 5d bd 5c 5a bc bd b4 45 0a 3e
       0.03538307 -0.05412211 -0.09196922 0.13503152
000370 84 8e 5f be 46 d1 d3 bb c1 f9 92 bc ce 04 42 ba
       -0.21831709 -0.0064641563 -0.017941358 -0.00074012286
000380 4e 02 52 be 81 27 42 3e 61 a8 a2 bb e1 05 a2 3c
       -0.20508692 0.18960382 -0.00496392 0.019778194
000390 8c 14 6f 3d 6d 8d 0f bc e6 57 4b be 1c bd 90 bd
       0.058369204 -0.008761746 -0.1985775 -0.0706732
0003a0 7b dd ea 3d 6b 45 05 3d d0 c7 85 bd b8 5e 2d bd
       0.11468025 0.032536905 -0.06532252 -0.04232666
0003b0 bc 6f 85 bc c8 2b 01 bd 66 41 b9 3d 8e 01 cf 3c
       -0.01628863 -0.031535894 0.09045677 0.025269296
0003c0 0d 54 17 3d 49 52 45 3d 80 74 25 3c d1 b8 78 3c
       0.03694539 0.048174176 0.010098577 0.015180782
0003d0 08 4f b1 bc 9a 2f 10 be 74 95 98 bd 54 a0 05 bd
       -0.02164413 -0.14080659 -0.07450381 -0.032623604
0003e0 58 a5 58 3d 0a 88 09 3d f1 db 16 be d7 4a b1 3c
       0.05289206 0.033577003 -0.14732338 0.021642132
0003f0 2a 95 ab 3d 23 49 da bd 20 79 66 3c 31 a4 ba bd
       0.0837806 -0.10658481 0.014066964 -0.09113348

fc2.bias f4 [96]
000000 7b c6 43 be f1 24 d8 be 5a ea 4f bd f9 a5 f4 bc
       -0.19118683 -0.42215684 -0.050760604 -0.029864298
000010 1b 1d 1e 3f 36 8c cb 3e a7 55 ef be 90 3a 12 bf
       0.6176316 0.3975541 -0.46745035 -0.5712061
000020 31 e4 15 c0 d0 ee c4 bd 6f 1a ee 3d 8c b2 e6 3d
       -2.3420527 -0.09615862 0.116261356 0.11264524
000030 8a d5 1a 3f b0 1a 1d be 0c ac 88 bb 1f 30 1d bf
       0.60482085 -0.15342212 -0.0041709 -0.6140155
000040 0d d4 66 bc e8 65 1d 3e fa ad 3a 3f e1 bc ce 3e
       -0.014088643 0.15370905 0.7292172 0.40378478
000050 61 cd 2c bf 70 a3 67 bd 41 e4 57 bd f0 d0 14 c0
       -0.67500883 -0.05655235 -0.052707914 -2.3252525
000060 20 0d 46 bf 36 06 ea be c4 2a 26 bc 6d 18 76 be
       -0.7736378 -0.45707864 -0.010142032 -0.24032755
000070 ab cf 17 bd d0 aa 94 bd 67 28 d8 bf c4 7d 52 bb
       -0.037063282 -0.072591424 -1.688733 -0.003211842
000080 08 78 01 3e ed 4a db bd f7 b4 dc be d2 d1 a2 be
       0.12643445 -0.1070765 -0.43106815 -0.31800705
000090 8e 78 5a bd c8 78 28 be 03 b0 25 bf 02 2f 57 3f
       -0.053337626 -0.16452324 -0.647217 0.84056103
0000a0 4e 28 05 bf c6 5e 8d be 93 d4 9d be a7 ba a8 be
       -0.52014625 -0.2761137 -0.30826244 -0.32954904
0000b0 f9 24 32 bd 38 0f 30 3f df 21 b0 be 57 a5 99 bd
       -0.04349229 0.6877322 -0.34400842 -0.07502239
0000c0 7c 6c c3 be f3 36 57 be 59 68 83 be 79 f4 00 bc
       -0.38168705 -0.21017055 -0.25665548 -0.007870787
0000d0 a9 2f be bd 48 8c f4 bd 12 7a dd be f0 fb ca 3e
       -0.09286434 -0.11940819 -0.43257195 0.39645338
0000e0 ea a0 86 be 16 5e c5 be 53 fb 0c c0 1a d9 94 bd
       -0.26294643 -0.38548344 -2.2028396 -0.07267971
0000f0 58 18 88 bd 09 b3 85 bd c4 bb b1 be 53 49 a7 3e
       -0.06645268 -0.06528289 -0.34713566 0.3267313
000100 ce 71 35 be 08 72 fc be 7b 71 4f be 05 19 6a 3e
       -0.17719194 -0.4930575 -0.20258133 0.22861107
000110 1e 1b 23 c0 d8 0a 10 3f 43 fd 23 3f 89 ef 96 bb
       -2.54853 0.56266546 0.6405832 -0.0046061915
000120 6b b2 14 be c6 fd f8 bc e1 fb e2 bd 8b 53 1d 3f
       -0.14521186 -0.030394446 -0.11083198 0.614556
000130 73 36 2a bd 5e 6d 6f be bd 5f 13 3f 8f 32 39 bd
       -0.041555833 -0.23381564 0.5756796 -0.045214232
000140 04 46 a6 be cf bc 19 be 80 38 c7 bf d9 13 0c bd
       -0.32475293 -0.15013431 -1.5564117 -0.034198616
000150 b4 25 07 bf 0e 17 93 be cb 62 db bd 19 0a e7 be
       -0.52791905 -0.28728527 -0.10712203 -0.4512489
000160 ea a5 03 be f2 ca 27 bf ff 4c ac 3d 94 ee 9b bd
       -0.1285626 -0.65544045 0.08413123 -0.076138645
000170 bb 14 0f be 6d 33 09 bd c0 54 b1 3e ac a8 73 3d
       -0.13972752 -0.03349631 0.34634972 0.05948703

fc3.weight f4 [48, 96]
000000 28 12 fb bd e5 36 c8 bd eb 70 ac 3d 7d 62 42 3e
       -0.122593224 -0.09776095 0.08419975 0.18982883
000010 4e 7d 0d bf 69 48 8d 3c c6 88 ff bc de 75 c4 bc
       -0.55269325 0.017246442 -0.031193148 -0.023981985
000020 3c dd 15 3d 18 0e 0d bd 0a 09 84 3e 84 f2 24 3d
       0.03658794 -0.03443727 0.25788146 0.040270343
000030 8c ba 42 be 90 80 6a be 11 1e d3 bd 2d 36 7f be
       -0.19016474 -0.22900605 -0.10308469 -0.2492301
000040 1f 76 9e 3c 95 7f d7 3d 0e fe 3f bd 0d 92 34 be
       0.019343434 0.10522381 -0.046873145 -0.17633839
000050 97 1a 59 3d 3a c2 9a 3d aa 17 1e 3e b9 09 6d 3c
       0.053003874 0.07556577 0.15438715 0.01446765
000060 9f e1 38 be 18 a7 67 3d 39 ae 46 3d 02 54 a1 36
       -0.18054818 0.056555837 0.048505995 4.8079537e-06
000070 fa f1 73 bd 58 e0 d7 3c e0 6d 89 3c ed 62 e3 3d
       -0.05955694 0.026352093 0.016776025 0.11102853
000080 fb a8 f9 be 77 e2 fd bd 51 67 81 bd 2c c7 f8 bd
       -0.48761734 -0.1239671 -0.06318534 -0.12147364
000090 13 18 ad 3d fc 19 d5 bc ae d2 67 bd 81 d5 ac bc
       0.084518574 -0.026013367 -0.056597404 -0.0210979
0000a0 9e e5 57 be 50 a9 0f bb 2e 95 05 be c9 aa a3 bd
       -0.21083686 -0.0021920986 -0.13045189 -0.07991559
0000b0 f2 66 16 3d 23 ee c4 be 26 6d 06 3e 93 40 17 be
       0.03671927 -0.38462934 0.13127574 -0.14770727
0000c0 e7 e0 09 be 02 fa 31 bd ae 8c 9a 3d 4d db 46 bd
       -0.134647 -0.043451317 0.07546364 -0.048548985
0000d0 3c 0e 4a be 1d ce a1 be 48 1e 92 3d ee 15 66 bf
       -0.19731992 -0.31602564 0.07134682 -0.8987721
0000e0 8b bd 3a 3e 5d c0 09 be cc 0a 8f 3c 0f 9c d6 bd
       0.18236367 -0.13452287 0.017461203 -0.104789846
0000f0 8d 75 08 bf 1c 84 ab be 40 c6 19 bd 35 d0 b8 be
       -0.5330437 -0.3349923 -0.03754258 -0.3609635
000100 ab 52 17 be 5e 0b c2 bd a1 22 5c 3c 86 b7 19 be
       -0.14777629 -0.09474824 0.013435991 -0.15011415
000110 dd 5c ee 3c f5 d7 27 3b d3 5c 6a 3d a2 7a fa 3d
       0.029097015 0.0025610898 0.05721743 0.122304216
000120 bf a9 46 3d 89 cd 80 bc f7 17 b8 bc ca 49 6c 3e
       0.048501726 -0.015723007 -0.022472365 0.23075023
000130 fc 20 13 be e1 8f aa 3b 9b 89 b8 3c a2 32 1d be
       -0.14368051 0.00520514 0.022526553 -0.15351346
000140 84 60 37 bd 92 5c 9b bd 00 9c 33 3d 5d 59 56 3d
       -0.04476978 -0.07586016 0.043849945 0.052331317
000150 e1 42 52 bd bd da 32 bd 75 f0 fd bd 9a 77 d3 bc
       -0.051333312 -0.043665636 -0.12399379 -0.025813866
000160 4e 79 c3 bc 2f bb 29 bf 13 3e 64 bf 3f 5b 59 be
       -0.023861554 -0.66301244 -0.8915722 -0.21226214
000170 52 06 b9 bd b2 38 61 3e ad 02 90 3e b7 6a 0b bc
       -0.09034409 0.21994284 0.2812704 -0.0085093295
000180 a7 37 ce bd d2 8e af be 9d eb c1 3e 66 c4 07 3f
       -0.100692086 -0.3428865 0.3787507 0.53034055
000190 02 6a 09 bf 14 c0 10 bd 3a 17 cd bd 65 f1 79 be
       -0.5367738 -0.03533943 -0.10014196 -0.24408491
0001a0 79 04 3f bf 17 02 9b 3d 8c ce 8d bd fd e7 02 bd
       -0.746162 0.07568758 -0.06924161 -0.031959523
0001b0 1e ad a6 be 11 d4 75 be 66 26 be bd a2 40 08 be
       -0.32553953 -0.24006678 -0.09284668 -0.13305905
0001c0 9c 0d 80 bd 0a 65 57 bd 7c 87 e0 be 5b 57 93 be
       -0.06252596 -0.052586593 -0.43853366 -0.28777584
0001d0 3c 99 5a be e0 44 d7 3d 58 8e cd 3d bd e4 20 bf
       -0.21347517 0.10511184 0.100369155 -0.62849027
0001e0 43 4b 02 be ee 54 d7 bd 15 2d 06 3e da c1 9f bd
       -0.12724023 -0.10514246 0.13103135 -0.07800646
0001f0 b4 23 79 bd 3a 04 27 be 11 16 f8 be a4 c4 23 3e
       -0.060825065 -0.16310206 -0.48454335 0.15992981
000200 cb 9b 50 be fe bc 13 be b8 d5 8c bd 85 8f df bd
       -0.2037193 -0.14427564 -0.06876701 -0.10916046
000210 00 79 3b bc 7f c2 4c be 31 91 49 3d 6f 90 92 3d
       -0.011442423 -0.1999607 0.04921073 0.07156455
000220 c7 ad 52 bd 16 36 d4 be 0d df ec 3b 2d d7 2b be
       -0.05143526 -0.41447514 0.007228738 -0.16781302
000230 b5 ab 61 3e 98 7a 12 bf 07 e6 5a be 66 ad 2c be
       0.22038157 -0.57218313 -0.21376811 -0.16863021
000240 57 42 7c 3e 77 8e 41 be 77 f9 aa be c5 c4 33 be
       0.24634682 -0.18902002 -0.33393452 -0.1755553
000250 12 f4 89 bd 6a d3 47 bd 62 06 98 bd e9 dc 10 be
       -0.06736006 -0.048785605 -0.074230924 -0.1414677
000260 9b 08 42 bd 99 81 b8 bd a7 98 d9 be 86 c6 0d be
       -0.047371488 -0.09009094 -0.42499277 -0.13845262
000270 18 ba 36 be 2c 6d b0 3e 47 f9 12 be fb 42 f0 3d
       -0.17844427 0.34458292 -0.14352904 0.117315255
000280 89 6f 21 be c2 52 b9 bd 75 c8 be 3d fb 4a 99 3e
       -0.15765204 -0.09048988 0.09315578 0.29940018
000290 bc bf f3 be ab 69 9d be 02 65 26 be 63 9f 1d bc
       -0.4760722 -0.3074468 -0.16249469 -0.00962052
0002a0 e2 8c a5 bd 1e ea 68 3c 9d 6d d0 bc d7 38 ea be
       -0.08083512 0.014215974 -0.025442893 -0.4574649
0002b0 c9 07 dc bd b5 08 08 bc c6 b5 ef be fc aa 8e bd
       -0.107436724 -0.008302857 -0.4681837 -0.069662064
0002c0 36 c0 25 be df 79 fe 3d 4a 31 d9 bd ec ad dc 3e
       -0.16186604 0.12425589 -0.10605104 0.43101442
0002d0 2e b6 00 be dc 11 98 3c 44 1c 63 bc 1d 10 6d be
       -0.12569496 0.018563204 -0.0138617195 -0.23150678
0002e0 c2 78 37 3e da b5 a0 bd 11 b3 1b 3e c0 8d 90 be
       0.17917159 -0.078471854 0.15205027 -0.28233147
0002f0 c8 22 a2 bd bb e2 3f be 79 a1 fa be 64 f9 71 3d
       -0.0791679 -0.18738835 -0.4895132 0.059075728
000300 5d f5 be bd 7d e4 5f bb 63 28 8c 3e 4e 6d f9 bd
       -0.09324143 -0.003416329 0.27374563 -0.12179051
000310 bf 69 22 bd c1 a6 f4 bd e3 13 8d bc 21 63 00 3e
       -0.03965163 -0.11945868 -0.017221397 0.12537815
000320 87 14 30 be 2e 3c b8 bb e0 cd 1e 3e 56 c4 3c 3e
       -0.1719533 -0.0056224084 0.15508223 0.18434271
000330 27 e6 dd 3d 86 7f 0a 3d 38 67 98 be a8 2b 38 3d
       0.10834914 0.033813022 -0.2976625 0.04496351
000340 89 df 8f 3c ab 6a df 3e b8 12 09 3d 63 5d 2f 3e
       0.017562645 0.4363607 0.033465117 0.17125468
000350 1a 3e d6 bd 58 74 54 3e 12 46 25 3e 3b 59 17 be
       -0.10461064 0.20747507 0.16140011 -0.14780132
000360 89 12 17 be 4f 27 b8 3d ca 48 92 3b 66 d3 1d be
       -0.14753164 0.089918725 0.0044642435 -0.15412673
000370 52 cd 88 3c b3 7b e9 bd a1 66 0a bf 43 6c 64 bd
       0.016699467 -0.11400547 -0.5406285 -0.05576731
000380 70 f5 c1 3d 78 2c 0a be e4 0f 7a 3c 60 e6 6a 3d
       0.094706416 -0.13493526 0.015262578 0.05734861
000390 1a f5 a1 bb 09 a2 33 3e 8e a0 55 bd 9e 6f 16 3d
       -0.0049425485 0.1754228 -0.05215507 0.03672754
0003a0 3d 80 05 be f8 32 1a be 08 e3 16 be 46 07 bd bd
       -0.130372 -0.15058506 -0.14735043 -0.09229903
0003b0 34 dc 09 3e c1 47 08 3e 69 d8 c3 be 7c 35 e9 3d
       0.13462907 0.13308622 -0.38251045 0.113871545
0003c0 71 6a 8e 3d 7e c0 25 3e cc b0 c6 bd a5 7b 16 be
       0.06953896 0.16186711 -0.0970169 -0.14695604
0003d0 e0 2e 7b bb c0 bd 79 bd 88 6b ea 3c a9 2c 95 bd
       -0.00383275 -0.060971975 0.028615728 -0.07283909
0003e0 02 98 2c 3c 61 67 8f 3d 61 de 87 be db 92 8a bd
       0.010534288 0.0700214 -0.2653685 -0.06766292
0003f0 6a 3a 15 be 87 17 dc 3e 5b 5f 39 bb 7a cb bc 3d
       -0.14573064 0.429867 -0.0028285596 0.092184976

fc3.bias f4 [48]
000000 45 3b 93 bd 99 4e fd 3e bb 9a 5f 3e 72 b3 fc be
       -0.07189039 0.49474028 0.21836369 -0.49355656
000010 c9 a5 3b 3f 76 6f 1a bf 0f 70 de be 0d 1e 0c be
       0.73299843 -0.60326326 -0.4344487 -0.13683338
000020 c9 1b 6c 3f a0 63 c9 bd 32 35 cb 3e ef 60 38 3f
       0.92229897 -0.09833455 0.39689022 0.7202291
000030 7a 93 94 3d dc 5e 57 3e d4 dc ad 3e f6 80 f1 3b
       0.072546914 0.2103228 0.3395754 0.0073701097
000040 ed 4e 49 3f 64 3b bc 3f 44 56 c2 bd f8 8c 3f 3f
       0.78636056 1.4705625 -0.0948911 0.74824476
000050 35 5e 18 3f 27 5e 71 3f 9b a1 dc bd a3 40 ec 3d
       0.5951875 0.9428429 -0.10773011 0.11535766
000060 55 4a e5 3e e5 90 b3 3f 0e 75 94 3f 7b ec de 3e
       0.44783273 1.4028593 1.1598222 0.43539795
000070 c8 e6 9d 3f cc 70 06 be 6e 2d 98 bd 17 a6 e1 3e
       1.2336054 -0.13128966 -0.0743054 0.4407203
000080 3a fa ca bd 1a cc a0 be db ec 84 be 67 79 18 bd
       -0.09911008 -0.31405717 -0.25961956 -0.037225153
000090 eb 06 a7 3f 64 08 39 3f d6 8c 37 3f b2 62 47 bf
       1.3048986 0.7227843 0.71699274 -0.7788497
0000a0 fe 79 ff be 75 f9 17 be 03 e3 9a bd 52 b4 12 be
       -0.4989776 -0.14841254 -0.0756283 -0.14326599
0000b0 c5 88 12 bf 78 e6 4d bf 15 26 8a 3f c7 6c 42 3f
       -0.57239944 -0.8042979 1.0792872 0.7594723

fc4_1.weight f4 [1, 48]
000000 6f 2d 8e 3c 8c 60 f0 3c 52 c5 ed bb 5f bf 28 3d
       0.017355649 0.029342912 -0.0072561884 0.04119813
000010 d3 29 9f bc 68 85 01 bb 6b 28 39 3d 13 9a 38 3d
       -0.019429123 -0.0019763354 0.04520456 0.04506881
000020 f8 f4 c3 3c 1f 75 a9 3c f1 bf c5 3c bf 59 2b ba
       0.023920521 0.02068573 0.024139376 -0.00065365055
000030 aa 9d de 3c 3e 3f ea 3c f8 40 f3 bb 56 b5 8d 3c
       0.02717479 0.02859461 -0.0074235164 0.017298382
000040 4d fd d0 3c b0 0e 98 3a 56 fc 22 bd 4a fa 70 bc
       0.025511408 0.0011601057 -0.039791428 -0.014708111
000050 9a 7b 5b bc 80 a0 83 3c b2 04 a4 3c 7e 38 5c bc
       -0.013396168 0.016067743 0.02002177 -0.013441203
000060 af 40 6c 3d 00 d3 94 bc 1c e1 a4 bc 08 9b cf 3c
       0.057678875 -0.018167019 -0.020126872 0.02534248
000070 5e ea c3 bc 26 88 a7 3c b8 cf b1 3c d0 6f de 3c
       -0.023915466 0.020450663 0.021705493 0.027152926
000080 ea f5 96 3c 95 7a c2 bc f4 0b f7 3c 97 ed 34 3d
       0.018427808 -0.023740092 0.030157067 0.044171896
000090 60 a3 6d 3c 2e 15 6e bc 29 37 e1 bc 1b 8b 80 3c
       0.014504284 -0.014531417 -0.027492123 0.01569133
0000a0 9d 32 a3 3d a7 28 b4 bd f4 97 ce bd ef 2f 5f bc
       0.07968638 -0.08796816 -0.100875765 -0.013622268
0000b0 6a 96 d5 3c 73 78 3d 3c 30 61 bd 3c 21 47 1a bd
       0.0260727 0.011564362 0.023117632 -0.03766549

fc4_2.weight f4 [1, 48]
000000 b8 fe c8 3c 0e 70 99 be 00 67 4e be e6 b9 e1 3e
       0.024535522 -0.29968303 -0.20156479 0.44087142
000010 6b e0 8e be d6 d2 09 3e 5a 3f 62 3e 6c f3 37 3d
       -0.27905592 0.13459334 0.22094479 0.04490988
000020 1a 40 67 be d1 43 e4 3c 90 f2 ce be b8 0c 8e 3f
       -0.22583047 0.027864369 -0.40419436 1.1097631
000030 e3 2e 6d 3e 99 90 91 be 9e 54 a6 3f b8 4c d3 3c
       0.23162417 -0.28430632 1.2994573 0.025793418
000040 67 17 9b be 89 73 f5 be f3 7b 0c bd c4 75 8a be
       -0.30291292 -0.4793971 -0.034297895 -0.27042973
000050 8b 9d 81 3f 89 bc 89 be 1e 64 a8 3c 3d dd a2 be
       1.0126203 -0.26901653 0.020555552 -0.31809416
000060 93 7a b4 3f a8 4f d6 be 84 90 ac be 95 92 df 3f
       1.4099907 -0.41857648 -0.33704007 1.7466608
000070 96 43 49 3f 7e ba 9e 3c 11 28 e7 3c 6e f0 60 be
       0.7861875 0.019376036 0.028217347 -0.21966717
000080 ab 60 5a 3e 74 69 93 3d d2 d3 e1 3d 1f ad 3c 3d
       0.21325938 0.07197848 0.1102673 0.04606354
000090 33 d4 c6 be 5a d0 38 be 81 8d 71 be 11 7e c9 3d
       -0.3883377 -0.1804823 -0.23589136 0.098384984
0000a0 7f 51 84 3e ca b6 c5 3e bc 65 3c 3d 07 1c c3 bc
       0.25843427 0.3861602 0.04599546 -0.023817075
0000b0 c8 74 f1 3e 48 be ab 3c 27 c0 50 be 48 05 58 3e
       0.4715941 0.020964757 -0.203858 0.21095765
