output/uncertainty_model_best.pth (torch, 82789 bytes, 12 tensors)

imgconv1.weight f4 [24, 5, 3, 3]
0	0x3e13b119	0.14423026
1	0x3de3dc98	0.11126059
2	0xbd5045e2	-0.050847895
3	0xbd44c91f	-0.048043367
4	0x3d021360	0.03175676
5	0xbc8381d7	-0.016053123
6	0xbc3dc88e	-0.0115834605
7	0xbde85e32	-0.11346091
8	0x3cd602f3	0.026124453
9	0x3e4a8086	0.1977559
10	0xbca9224a	-0.020646233
11	0xbe14ef4d	-0.14544411
12	0xbde0ab60	-0.10970187
13	0xbca9bc52	-0.020719681
14	0xbe58e622	-0.21181539
15	0xbd421067	-0.047378924
16	0xbd477e5d	-0.048704494
17	0x3d81c90b	0.06337174
18	0x3ddd0aaf	0.10793053
19	0x3d6c27bf	0.057655092
20	0xbd7f9576	-0.062398396
21	0x3e1a3f73	0.15063266
22	0xbc625875	-0.013815035
23	0xbe33b67c	-0.17550081
24	0xbd818548	-0.063242495
25	0xbe60c7ba	-0.2195119
26	0x3dd0327a	0.10165878
27	0xbec68de6	-0.38780135
28	0xbf4615fa	-0.77377284
29	0xbec5492a	-0.38532382
30	0xbeaed742	-0.34148604
31	0xbf4afc33	-0.79291075
32	0xbea1ff8e	-0.31640285
33	0xbc142e1d	-0.009044197
34	0xbeab00db	-0.3339909
35	0xbe2e575e	-0.17025515
36	0xbe8e973a	-0.27849752
37	0x3e522163	0.20520549
38	0x3ddde023	0.10833766
39	0xbeb2b0aa	-0.3490041
40	0xbdfd8b70	-0.12380111
41	0xbd0e666e	-0.034765653
42	0x3cbed7a2	0.023296181
43	0xbd218d70	-0.039441526
44	0xbd944645	-0.07239965
45	0xbce5537b	-0.027993908
46	0xbe5cb72c	-0.2155425
47	0xbd9c47be	-0.07630871
48	0xbe39e813	-0.18154936
49	0xbdc9d5a3	-0.09855201
50	0xbdc85afe	-0.097829804
51	0xbd06c0c7	-0.03289869
52	0xbd3d3588	-0.04619363
53	0xbd3dbb04	-0.04632093
54	0xbc5a4b0c	-0.013323557
55	0xbe06a49d	-0.13148732
56	0xbd361f9c	-0.04446374
57	0xbdac61d9	-0.084171005
58	0xbc819fc4	-0.015823252
59	0xbe00f70e	-0.12594244
60	0xbdbde338	-0.09271854
61	0xbe58fb26	-0.21189556
62	0xbdf9f475	-0.122048296
63	0xbdd6f3d8	-0.10495728
64	0x3d7de890	0.061989367
65	0xbddf4704	-0.10902217
66	0xbe13fc81	-0.14451791
67	0xbd6e4081	-0.058166984
68	0x3c317557	0.010831199
69	0xbdc404f3	-0.095712565
70	0xbdee0345	-0.11621717
71	0xbe7e4ccf	-0.24833988
72	0xbfd2d201	-1.6470338
73	0xbfb60335	-1.4219729
74	0xbfc05a1d	-1.50275
75	0xbfa84e2d	-1.3148857
76	0xbf182889	-0.5943685
77	0xbf8537b0	-1.040762
78	0xbfae2d50	-1.3607578
79	0xbf824ae0	-1.01791
80	0xbfb35c90	-1.4012623
81	0xbfe6a7b8	-1.8019934
82	0xbfcde032	-1.6084044
83	0xbfa7f047	-1.3120202
84	0xbfa54e01	-1.291443
85	0xbf960af1	-1.1722089
86	0xbf870674	-1.0548844
87	0xbf4f7ca0	-0.8104954
88	0xbf1f3201	-0.62185675
89	0xbf483f7f	-0.7822189
90	0x3e1f8e9d	0.15581746
91	0xbc7ae9a4	-0.015314493
92	0xbe809ad7	-0.25118133
93	0x3d1217b8	0.03566715
94	0xbdaa0680	-0.08302021
95	0x3e0f6fee	0.14007542
96	0x3d1315e5	0.035909552
97	0xbd07db8f	-0.03316837
98	0xbd52d49e	-0.0514723
99	0xbdc1f0a2	-0.09469725
100	0xbd801cfd	-0.06255529
101	0xbd2dffca	-0.042480268
102	0x3c0e75e1	0.008695097
103	0x3d11194f	0.035424527
104	0x3e9a2cf8	0.30112433
105	0x3d803374	0.06259814
106	0x3df98bec	0.12184891
107	0xbdf64fc2	-0.12026931
108	0x3b8f36aa	0.00437053
109	0xbe4f56fe	-0.20248029
110	0xbe169ec0	-0.14708996
111	0xbdc0ea09	-0.09419639
112	0xbc0b10d2	-0.008487897
113	0x3db3650a	0.08759506
114	0xbc3d39cf	-0.011549427
115	0x3e3a5c5d	0.18199296
116	0xbd4cd269	-0.05000535
117	0xbe8b44df	-0.27200982
118	0xbda19a1b	-0.078907214
119	0xbe518261	-0.20459892
120	0xbdd72d41	-0.105066784
121	0x3f14efb7	0.58178276
122	0x3ea1f8c6	0.31635112
123	0xbc94abff	-0.01814842
124	0x3f17f254	0.5935414
125	0x3e7796fd	0.24178691
126	0xbe4246a7	-0.18972264
127	0x3d7be422	0.06149686
128	0xbdfad273	-0.12247171
129	0xbd8bf228	-0.06833297
130	0x3ecf4fc5	0.40490547
131	0x3e5e6d9e	0.21721503
132	0x3e0e616f	0.13904355
133	0x3e06ac3a	0.13151637
134	0x3d290fd4	0.04127486
135	0xbbbb4d11	-0.005715974
136	0x3d5e6934	0.05429955
137	0xbe47e294	-0.19520026
138	0xbd4f2406	-0.050571464
139	0xbe267c3b	-0.16258328
140	0x3d373aa0	0.044733644
141	0x3da08f3d	0.078398205
142	0x3e6ae31e	0.22938201
143	0x3dc0d6fc	0.09416005
144	0xbd65535e	-0.05598771
145	0x3c12c2f5	0.008957614
146	0xbe2ddea9	-0.1697947
147	0xbd55c89e	-0.052193277
148	0x3d539f2d	0.051665474
149	0x3ea51e3a	0.32249624
150	0xbbcf3167	-0.006323028
151	0x3da1b4c1	0.07895804
152	0xbd3c5147	-0.04597595
153	0x3d3ed5f0	0.046590745
154	0xbd909df3	-0.070613764
155	0xbd517653	-0.051138233
156	0xbd41f9d4	-0.047357395
157	0x3d853d4f	0.06505834
158	0x3db587a7	0.08863764
159	0xbdceba61	-0.10094143
160	0x3e4a8343	0.19776635
161	0xbd8ac9cf	-0.06776773
162	0xbe2f4b28	-0.17118514
163	0xbf24d80e	-0.64392173
164	0xbe69a411	-0.22816493
165	0xbfa92385	-1.3213965
166	0xc014338f	-2.315647
167	0xbfa4b5aa	-1.286794
168	0xbfb8fa4d	-1.4451386
169	0xc00b1e11	-2.17371
170	0xbf81c969	-1.013959
171	0x3ecfdeb8	0.40599608
172	0x3e40251a	0.18764153
173	0x3e6ea485	0.23304947
174	0x3edb03a1	0.42776206
175	0xbe4be51f	-0.19911622
176	0x3ebe31e8	0.3714745
177	0x3d7ccd00	0.06171894
178	0xbe859df1	-0.26097062
179	0x3deac84c	0.11463985
180	0x3ce39db2	0.027785156
181	0x3d85eb27	0.065389924
182	0xbd4b0987	-0.049569633
183	0xbddb74da	-0.10715647
184	0x3e01b9d5	0.12668546
185	0x3db7058a	0.08936603
186	0x3d853fbd	0.06506298
187	0xbce1fa02	-0.027585033
188	0x3acbbe8e	0.0015544461
189	0x3da11bcb	0.07866629
190	0xbd6c5bbd	-0.057704676
191	0x3db6cebf	0.089261524
192	0x3de8c694	0.11366001
193	0x3e1e32ba	0.15449038
194	0x3cdb5043	0.02677167
195	0xbd948bdb	-0.07253238
196	0x3d89ed5d	0.067347266
197	0x3dfcf03e	0.1235051
198	0x3e718b2c	0.23588246
199	0x3dabd312	0.08389868
200	0x3ddd3272	0.10800637
201	0x3e31ee0c	0.17375964
202	0xbdc980c2	-0.09839012
203	0xbd9ea893	-0.07746997
204	0x3dfea8e5	0.12434558
205	0xbc0c8852	-0.008577423
206	0x3d055fa8	0.032561928
207	0xbf78143a	-0.96905863
208	0xbfafb1e6	-1.3726165
209	0xbef19729	-0.4718564
210	0xbfb3216d	-1.3994576
211	0xbfe9d9d3	-1.82696
212	0xbfb30f53	-1.3989052
213	0xbfdee331	-1.7413083
214	0xc00bc6c5	-2.184007
215	0xbfbba24b	-1.4658903
216	0xbd96299b	-0.07332154
217	0xbee5a225	-0.4485027
218	0x3e034002	0.12817386
219	0xbe0a8021	-0.1352544
220	0xbf242a03	-0.64126605
221	0xbe7c7e1f	-0.24657486
222	0xbe6dd7cc	-0.23226851
223	0xbf3ddd41	-0.7416573
224	0xbef1b73e	-0.47210115
225	0xbd7f7fba	-0.06237767
226	0xbe46a0fe	-0.19397351
227	0xbdb56152	-0.08856453
228	0xbd08d58a	-0.03340677
229	0x3e22789a	0.15866318
230	0xbe28e7dd	-0.16494699
231	0x3dd59e7e	0.104306206
232	0x3d8be6ea	0.06831153
233	0xbbab8026	-0.0052337823
234	0xbd56f15e	-0.05247628
235	0xbd8dc111	-0.0692159
236	0x3ca0e32a	0.01963957
237	0xbd6bb788	-0.057548076
238	0xbdcc3d10	-0.09972584
239	0x3c23d3d6	0.009999236
240	0x3a4caef2	0.00078080513
241	0xbdcf2348	-0.10114151
242	0xbc787dca	-0.015166709
243	0xbd4b94b3	-0.049702358
244	0x3d2eb2ac	0.042650864
245	0xbd4a88ba	-0.0494468
246	0xbe1091e4	-0.14118153
247	0x3d991cd4	0.07476202
248	0xbdc6c4b9	-0.097054906
249	0xbc882f2c	-0.016624056
250	0xbd2ab4af	-0.04167622
251	0xbd724264	-0.059145346
252	0xbebf31df	-0.37342736
253	0xbdb5c2bf	-0.088750355
254	0xbe2ef273	-0.17084675
255	0xbf5178b9	-0.81824833

imgconv1.bias f4 [24]
0	0x3d09f140	0.03367734
1	0xbe5e450a	-0.21706024
2	0xbed2c333	-0.4116455
3	0x3e80d1e7	0.25160143
4	0xbcdadee8	-0.026717618
5	0xbe626ea3	-0.22112517
6	0xbd998dee	-0.07497774
7	0xbec861d1	-0.39137128
8	0xbf15015c	-0.582052
9	0xbeebf00f	-0.46081588
10	0xbeeb8283	-0.4599801
11	0xbeb65442	-0.3561116
12	0xba8b3d3a	-0.0010623105
13	0xbdb32d4f	-0.08748876
14	0xbee1873f	-0.44048497
15	0xbe8e6057	-0.27807876
16	0xbf4648af	-0.77454656
17	0x3e839ca9	0.2570546
18	0xbe005358	-0.12531793
19	0xbf1e5378	-0.61846113
20	0xbeed3857	-0.46332046
21	0x3e144467	0.14479218
22	0xbec80b37	-0.39071056
23	0xbcd3ce60	-0.025855243

imgconv2.weight f4 [32, 24, 3, 3]
0	0xbb913d84	-0.004432382
1	0xbd854bdf	-0.06508612
2	0xbdb273e0	-0.08713508
3	0xbdbc22ae	-0.09186302
4	0xbe176fd7	-0.14788757
5	0xbe0206c6	-0.12697896
6	0xbd575fa1	-0.052581433
7	0xbd029333	-0.03187866
8	0x3d1604c2	0.03662563
9	0xbcb00823	-0.021488255
10	0xbd51a00d	-0.051178027
11	0xbd18249a	-0.03714428
12	0xbd8d9402	-0.06912996
13	0xbd0c1efe	-0.034209244
14	0xbc247fed	-0.0100402655
15	0xbd9afd29	-0.07567818
16	0xbcf53e7c	-0.029937021
17	0xbd8719c5	-0.06596712
18	0xbe19bca4	-0.15013367
19	0xbdc86d2c	-0.09786448
20	0xbd980282	-0.07422353
21	0xbe017b17	-0.12644611
22	0xbe2167ab	-0.15762202
23	0xbe01655a	-0.12636319
24	0xbdff0b5a	-0.12453337
25	0xbda60b27	-0.08107596
26	0xbd2557d7	-0.040366974
27	0xbb7e31c3	-0.0038786985
28	0xbd84285e	-0.06453012
29	0xbdbd11a7	-0.092318825
30	0xbd6eef66	-0.058333777
31	0xbdddbebb	-0.108273946
32	0xbdda9a7a	-0.10673995
33	0xbe0bc1f2	-0.13648203
34	0xbd7c7e3a	-0.061643817
35	0xbb7317cf	-0.0037093048
36	0xbdc94125	-0.098268785
37	0xbd9feb38	-0.07808536
38	0x3ccca72b	0.024982056
39	0xbda34a0f	-0.0797311
40	0xbc3557fa	-0.0110683385
41	0x3c3d3f41	0.011550725
42	0x3d0e2f6f	0.034713205
43	0xbbe5af43	-0.007009418
44	0x3c383517	0.011243126
45	0xbd7fb549	-0.062428746
46	0xbce3c823	-0.027805394
47	0xbd7310f3	-0.059342336
48	0xbd80cce2	-0.06289078
49	0xbe009f0e	-0.12560675
50	0xbdf407a7	-0.11915522
51	0xbd3e40c8	-0.0464485
52	0xbd111abf	-0.035425898
53	0xbc3727f5	-0.01117896
54	0x3d622c9b	0.05521832
55	0xbddb4325	-0.10706166
56	0x3cca3bdc	0.024686746
57	0xbcf729ec	-0.030171357
58	0xbde0f14f	-0.10983526
59	0xbe1210e6	-0.14264259
60	0xbe45584c	-0.19271964
61	0xbe0f2237	-0.13977896
62	0xbe0cb17b	-0.13739578
63	0xbd251333	-0.040301513
64	0xbd129925	-0.03579058
65	0xbcb1395e	-0.0216338
66	0xbdf9aa2b	-0.1219066
67	0xbd9c786b	-0.076401554
68	0xbda04d9d	-0.078273036
69	0xbc855a12	-0.0162783
70	0xbd256a20	-0.04038441
71	0xbcaf131b	-0.021371415
72	0xbd842586	-0.064524695
73	0xbdd58ec6	-0.104276225
74	0xbdb519a2	-0.0884278
75	0xbd8acff3	-0.067779444
76	0xbe13fdf5	-0.14452346
77	0xbdaad7ec	-0.08341965
78	0xbdda81f8	-0.10669321
79	0xbd6a2c6e	-0.057171278
80	0xbdaf577c	-0.08561608
81	0xbe01a3eb	-0.12660186
82	0xbe5ea57d	-0.21742816
83	0xbc779ca4	-0.01511303
84	0xbd9f9706	-0.07792477
85	0xbd25cb75	-0.040477235
86	0xbd521c87	-0.051296737
87	0xbd855511	-0.06510366
88	0xbe24f640	-0.16109562
89	0xbce085eb	-0.027407607
90	0xbe089995	-0.13339837
91	0xbd5eca75	-0.054392297
92	0xbd4d8b24	-0.050181523
93	0xbdcbf25f	-0.09958338
94	0xbe02c298	-0.12769544
95	0xbe34b467	-0.17646943
96	0xbdd8f0df	-0.105928175
97	0xbdfd0fc8	-0.12356526
98	0xbc6349c8	-0.013872571
99	0xbc5b2ef4	-0.013377894
100	0xbd9c5d79	-0.07635016
101	0xbdb5c208	-0.08874899
102	0xbd879c20	-0.06621575
103	0xbced4792	-0.028964791
104	0x3bad8361	0.0052952026
105	0x3b757264	0.0037452215
106	0xbd1743c3	-0.036929857
107	0xbd01a5cf	-0.031652268
108	0xbba85558	-0.005137127
109	0xbc5652d6	-0.013081273
110	0x3b7772dd	0.0037757673
111	0xbca1345f	-0.019678293
112	0xbd026cc8	-0.031842023
113	0x3c43f7a6	0.011960899
114	0x3cce1723	0.025157517
115	0x3b375516	0.00279743
116	0xbcb2e8b9	-0.021839486
117	0xbde8adc1	-0.11361266
118	0x3c1e8509	0.009675273
119	0x3d3ef30e	0.046618514
120	0xbc6d6e20	-0.014491588
121	0x3d4f1810	0.050560057
122	0x3d34f70b	0.04418091
123	0xbc19f9ec	-0.009397965
124	0xbd7c254d	-0.06155901
125	0x3cea7ce5	0.028624007
126	0xbc46e227	-0.01213888
127	0xbde1e330	-0.11029661
128	0xbd83212a	-0.0640281
129	0xbd9f11dc	-0.07767078
130	0xbd62bd2e	-0.055356197
131	0x3d232b34	0.039836124
132	0xbc5b6b05	-0.013392215
133	0xbd1b368e	-0.037893824
134	0xbc21e50b	-0.009881268
135	0x3d47e912	0.048806258
136	0x3c0e4c82	0.008685233
137	0xbd940361	-0.07227207
138	0x3d2911b8	0.041276664
139	0x39839744	0.0002509897
140	0xbc5f829d	-0.0136419805
141	0x3cdd705f	0.027031122
142	0xbc7e9b49	-0.015539953
143	0xbdab22f8	-0.08356279
144	0xbdb4aec2	-0.08822395
145	0xbd950b1b	-0.07277509
146	0x3c8c6ebe	0.01714265
147	0xbe19b7a5	-0.15011461
148	0x3d5f2082	0.05447436
149	0xbdb7e26c	-0.089787334
150	0xbdcdfc6c	-0.10057911
151	0x3d4448fe	0.047921173
152	0xbdf3b667	-0.11900025
153	0xbcad171f	-0.021129189
154	0xbddf626b	-0.109074436
155	0xbcb4b579	-0.02205919
156	0xbcd30320	-0.025758326
157	0xbdd0b600	-0.10190964
158	0xbe08d0a3	-0.13360839
159	0xbba95383	-0.005167426
160	0xbd3f9601	-0.046773914
161	0xbd1f4f5e	-0.03889405
162	0xbd0afcc7	-0.033932474
163	0xbcce39eb	-0.025174102
164	0xbd967edd	-0.07348416
165	0xbdd778d8	-0.10521096
166	0xbcde5468	-0.027139857
167	0xbd109b00	-0.03530407
168	0xbcc7eb0b	-0.02440407
169	0x3cda8ba7	0.02667792
170	0xbc1dec49	-0.009638854
171	0x3d0002f3	0.031252813
172	0xbd16a8e8	-0.036782175
173	0xb90ba795	-0.00013318502
174	0xbc879247	-0.016549243
175	0xbda358be	-0.079759106
176	0xbd3a73c1	-0.045520548
177	0xbd77c221	-0.06048787
178	0xbd4ca973	-0.049966287
179	0x3c1cb2de	0.00956413
180	0xbd63cb75	-0.055613954
181	0x3d4dae85	0.050215263
182	0xbdcc7120	-0.099825144
183	0xbc4d0ac0	-0.01251477
184	0xbde44cf5	-0.11147491
185	0x3cbb5496	0.022867482
186	0xbe18b157	-0.149114
187	0xbe119d62	-0.14220193
188	0xbd876743	-0.066114925
189	0xbcf67b79	-0.030088173
190	0xbd6b260b	-0.057409327
191	0xbc0a6712	-0.008447425
192	0x3d325e7e	0.043547146
193	0xbdb28a1c	-0.087177485
194	0x3c120da1	0.008914382
195	0xbb33b727	-0.00274224
196	0xbbdf8c46	-0.006822142
197	0xbd1a6976	-0.03769823
198	0xbd62e868	-0.05539742
199	0x3cac6008	0.021041885
200	0xbd8c7ac6	-0.06859355
201	0xbda912f3	-0.082555674
202	0xbcbde04f	-0.023178248
203	0xbc870feb	-0.016487082
204	0x3bca656d	0.0061766417
205	0xba99b9c5	-0.0011728337
206	0xbe0b9b0b	-0.13633363
207	0x3b880ff3	0.004152292
208	0xbc745fce	-0.01491542
209	0xbdb06098	-0.08612174
210	0xbe18d6f5	-0.1492575
211	0xbc99b25f	-0.018761812
212	0xbd37af7f	-0.0448451
213	0xbcbc7ac7	-0.023007764
214	0xbc9f2f70	-0.0194318
215	0xbd8c1812	-0.068405285
216	0xbde69719	-0.11259288
217	0x3e9b3c0f	0.3031926
218	0x3da3b610	0.0799371
219	0x3cada86c	0.021198474
220	0x3d8ca7d9	0.06867952
221	0xbddf6b32	-0.10909118
222	0x3dc02512	0.093820706
223	0xbe515233	-0.20441513
224	0x3d017e76	0.031614743
225	0x3e095495	0.13411172
226	0xbdac80d2	-0.08423008
227	0xbddb8def	-0.10720431
228	0x3d8d8037	0.06909221
229	0xbdb7640d	-0.0895463
230	0xbdd970e5	-0.10617236
231	0x3e0c012d	0.13672324
232	0x3cb711f0	0.02234742
233	0x3e1b260f	0.15151237
234	0xbc6b2f64	-0.0143545605
235	0xbcfae642	-0.030627374
236	0x3cfb7153	0.030693686
237	0x3d964424	0.073372155
238	0x3cb647ca	0.022251029
239	0x3e7d92f4	0.2476309
240	0xbd854fbb	-0.06509348
241	0xbe1d0234	-0.15332872
242	0xbe21b9d3	-0.15793543
243	0x3e1f4b2b	0.15556018
244	0xbda29b91	-0.07939828
245	0xbd3ecf95	-0.046584684
246	0xbce08ff0	-0.027412385
247	0x3e228591	0.15871264
248	0x3e17c1b1	0.14819981
249	0x3dc2c558	0.095102966
250	0xbe0bb654	-0.13643771
251	0x3de58e5f	0.11208796
252	0x3c86df87	0.016464008
253	0x3dc74aba	0.0973105
254	0xbd997047	-0.07492118
255	0xbde78613	-0.113048695

imgconv2.bias f4 [32]
0	0xbe5695ce	-0.20955583
1	0x3e3ee514	0.18642074
2	0x3df72111	0.12066854
3	0x3ccc859d	0.024966056
4	0xbb7ecf1a	-0.0038880766
5	0xbd3fc081	-0.046814445
6	0x3f179546	0.5921215
7	0x3d37ef0c	0.044905707
8	0xbc89e601	-0.016833307
9	0x3e12e5ad	0.14345427
10	0xbdb00b49	-0.085959025
11	0xbc14855c	-0.0090649985
12	0x3e04a349	0.12952913
13	0xbb015fbd	-0.0019740902
14	0xbdf4af90	-0.119475484
15	0xbd96abc3	-0.0735698
16	0xbe16fb11	-0.14744212
17	0x3c5a4d8b	0.013324152
18	0x3e03c5c6	0.12868413
19	0xbdf036fa	-0.11729236
20	0xbe00520c	-0.12531298
21	0x3f228645	0.6348613
22	0x3e36769d	0.17818685
23	0x3e886cb0	0.26645422
24	0xbe0bffc6	-0.13671789
25	0xbd84b23a	-0.064793065
26	0x3e49ae29	0.19695343
27	0xbd3b5466	-0.045734785
28	0xbd4d14b5	-0.050068576
29	0x3dd76ce3	0.10518815
30	0x3e8138c0	0.2523861
31	0xbe1b8dc5	-0.151908

fc1.weight f4 [48, 36]
0	0x3e05cf60	0.13067389
1	0xbd701e3e	-0.05862259
2	0x3d9b2b21	0.075765856
3	0x3d1c029a	0.03808842
4	0x3cd9843c	0.026552312
5	0x3d8bd16f	0.06827056
6	0xbe117cfe	-0.14207837
7	0xbe4c4570	-0.19948363
8	0xbe40f75a	-0.18844357
9	0x3da42eb6	0.08016722
10	0xbd80a8e4	-0.06282213
11	0x3d501b7f	0.050807472
12	0xbc484c5a	-0.012225235
13	0xbdeaff22	-0.11474444
14	0x3e005008	0.1253053
15	0x3e803405	0.25039688
16	0x3dde7785	0.1086264
17	0xbdbdc3fd	-0.092658974
18	0x3c9d5211	0.019204171
19	0x3cf80067	0.03027363
20	0x3de6a60b	0.11262139
21	0xbe2c7d8c	-0.16844767
22	0xbe3e4d89	-0.18584265
23	0x3e8d0eed	0.2755045
24	0x3d89dfd6	0.067321464
25	0xbd1a4357	-0.037661877
26	0x3d26d894	0.04073389
27	0xbdf7bff1	-0.12097157
28	0x3d5ebc56	0.05437883
29	0x3cdca851	0.026935728
30	0x3e130d84	0.14360625
31	0x3cf9d780	0.030498266
32	0xbdc9efe0	-0.09860206
33	0x3e2d434d	0.16920204
34	0xbe0c2f98	-0.1369003
35	0xbda7d3ca	-0.081946924
36	0xbb5c9fa6	-0.0033664494
37	0xbd75cb5e	-0.0600084
38	0xbc737ae3	-0.014860841
39	0x3cfec186	0.031098139
40	0xbca101e9	-0.019654231
41	0x3d49e441	0.049289946
42	0xbc2e3204	-0.010632042
43	0x3e4c1a88	0.19931996
44	0x3e44a7a1	0.1920457
45	0xbd874a39	-0.06605954
46	0x3e00e1ac	0.12586087
47	0x3d9a11c7	0.07522922
48	0xbc4f3c36	-0.012648633
49	0xbd069c1b	-0.032863718
50	0xbd97516c	-0.07388577
51	0xbe3d3695	-0.18477853
52	0x3ce89dca	0.028395552
53	0x3c0e6e8e	0.0086933505
54	0x3c58a280	0.013222337
55	0x3d8e0ae4	0.06935671
56	0xbd81819f	-0.063235514
57	0xbcae4969	-0.021275239
58	0x3e029b82	0.12754634
59	0xbd8a6d97	-0.06759184
60	0xbceeaf27	-0.029136254
61	0x3e4b9eb5	0.1988476
62	0x3de39612	0.11112608
63	0x3d5e1acc	0.054224774
64	0xbe0e1473	-0.13874988
65	0xbe92638f	-0.28591582
66	0x3cabaf1a	0.020957518
67	0xbd7f731e	-0.062365644
68	0xbfa3c14f	-1.2793368
69	0x3ffb4c49	1.9632655
70	0xbe31619f	-0.17322396
71	0xbf220ac1	-0.6329766
72	0xbcd25d10	-0.025679141
73	0xbc93190d	-0.017956281
74	0x3d73bc49	0.059505735
75	0x3d3e3da5	0.046445508
76	0x3d17d409	0.037067447
77	0xbda096dd	-0.07841275
78	0x3da1d850	0.079025865
79	0xbe3a8141	-0.18213369
80	0xbe4eb31d	-0.20185514
81	0xbe490fb7	-0.19634901
82	0xbcea3d07	-0.028593553
83	0xbdafd9d0	-0.08586466
84	0xbd710e0f	-0.058851298
85	0x3d3ea715	0.04654606
86	0xbce72bd4	-0.028219141
87	0xbe8fb5cb	-0.28068385
88	0x3dffcd6a	0.124903515
89	0x3de2c363	0.11072423
90	0x3dc77bb5	0.09740392
91	0xbd8fa9c1	-0.070148
92	0xbd4546f6	-0.048163377
93	0x3cb84041	0.022491576
94	0xbe2e01d4	-0.16992885
95	0xbd2e8629	-0.042608414
96	0x3d4b79e1	0.04967678
97	0x3df29e04	0.11846545
98	0x3d8bd5f4	0.06827918
99	0xbe1d1326	-0.15339336
100	0xbdefbb08	-0.11705595
101	0x3d24550c	0.04012017
102	0xbdd6b4de	-0.104837164
103	0x3d195f16	0.037444197
104	0xbe2f7408	-0.17134106
105	0xbeb32f1e	-0.34996885
106	0xbdee026c	-0.11621556
107	0x3d45ec49	0.048321042
108	0x3ddb777f	0.107161514
109	0x3cf3bd83	0.029753452
110	0xbc05c85d	-0.008165446
111	0x3e3ae91c	0.18252987
112	0x3c8c825d	0.017152006
113	0xbe3b50d2	-0.18292549
114	0xbe2664f8	-0.16249454
115	0xbd5c1afb	-0.053736668
116	0xbd956c07	-0.07295995
117	0xb876d0b6	-5.8845348e-05
118	0xbdf468b3	-0.11934032
119	0x3dfa2200	0.12213516
120	0xbdbee595	-0.09321133
121	0xbe61f0f6	-0.22064576
122	0x3d623474	0.055225804
123	0xbe312737	-0.17300116
124	0xbd52c574	-0.051457837
125	0xbd6ec29c	-0.058291063
126	0x3cec5b66	0.028852176
127	0x3dd32052	0.10308899
128	0x3d838254	0.064213425
129	0x3cf05fa9	0.02934249
130	0xbd6e0803	-0.05811311
131	0x3d7ee913	0.062233996
132	0xbd8a744b	-0.067604624
133	0x3c3dffb1	0.011596606
134	0xbd1577a7	-0.036491062
135	0xbc6157ce	-0.013753844
136	0x3de521d3	0.11188092
137	0xbc796dab	-0.015223901
138	0xbcefc010	-0.029266387
139	0xbdcc236b	-0.09967693
140	0xbb073633	-0.002063167
141	0xbd944a83	-0.072407745
142	0x3e96dee2	0.2946692
143	0x3e7f4e53	0.24932222
144	0x3dc0270e	0.09382449
145	0xbdc417e8	-0.09574872
146	0xbe1feaca	-0.15616909
147	0xbd27aec7	-0.040938165
148	0xbdeacfaa	-0.1146539
149	0xbc972f2e	-0.018455114
150	0xbde8de4e	-0.11370526
151	0xbdc161fc	-0.09442517
152	0xbe070b7a	-0.13187972
153	0x3c61010f	0.013733163
154	0xbe14641d	-0.14491315
155	0x3d9145a6	0.070933625
156	0x3d942db4	0.0723528
157	0x3e005781	0.1253338
158	0x3d46409a	0.048401453
159	0xbe3a67ab	-0.18203609
160	0xbe11b64b	-0.14229695
161	0x3d56f11e	0.05247604
162	0xbe2a1da6	-0.16612872
163	0x3e4d1625	0.20027979
164	0x3d1de963	0.038552653
165	0xbd87f0b9	-0.06637711
166	0xbe417294	-0.18891364
167	0x3d3feae4	0.04685487
168	0xbe5064bf	-0.20350932
169	0xbdb82fea	-0.08993514
170	0x3bddb98c	0.0067665037
171	0xbd1cea29	-0.03830925
172	0xbccd0d18	-0.025030658
173	0xbd014480	-0.031559467
174	0xbe2b8900	-0.1675148
175	0x3d3f1e61	0.04665983
176	0xbe79a86b	-0.24380653
177	0x3d77e1c6	0.06051805
178	0x3de09b2a	0.10967095
179	0xbd36a7d5	-0.04459365
180	0x3e2ab7c1	0.16671659
181	0x3e276811	0.16348292
182	0xbc295c7d	-0.010336992
183	0xbd2030d7	-0.039109077
184	0xbd0bea25	-0.034158845
185	0xbc4c6f98	-0.012477778
186	0xbdeb5175	-0.11490146
187	0x3d4507b2	0.048103042
188	0xbe5922bf	-0.21204661
189	0xbe3123cc	-0.17298812
190	0x3db17f8f	0.08666908
191	0x3df79bf0	0.120902896
192	0x3dc0e921	0.09419466
193	0x3d4da40b	0.05020527
194	0x3e8063f8	0.2507627
195	0xbe0dc5b2	-0.13844946
196	0x3ea86a32	0.3289352
197	0x3b7d3ab9	0.0038639738
198	0x3ae4e2fc	0.0017462666
199	0x3da884e1	0.0822847
200	0xbccc7a10	-0.024960548
201	0xbe12eee7	-0.14348947
202	0xbcadef64	-0.021232314
203	0x3de0332d	0.10947261
204	0x3dada546	0.08478789
205	0x3e422144	0.18958002
206	0xbe836ec5	-0.25670448
207	0x3e0c1b23	0.13682227
208	0x3c6bc471	0.014390097
209	0x3d4f2c33	0.05057926
210	0x3e0c46b3	0.13698845
211	0x3d92398c	0.071398824
212	0xbe537f73	-0.20654087
213	0x3d36c014	0.044616774
214	0xbe129719	-0.14315452
215	0xbc9a723d	-0.018853301
216	0xbd318ddb	-0.043348175
217	0xbd0c6697	-0.034277525
218	0xbe39265e	-0.18081042
219	0x3d6b20bd	0.05740427
220	0xbd01f10f	-0.031724032
221	0xbdf851e2	-0.12124993
222	0xbe4f202b	-0.20227115
223	0xbcf64bcf	-0.030065445
224	0xbe3752f6	-0.17902741
225	0xbdb8da73	-0.09026041
226	0x3e08efb8	0.13372695
227	0xbe4330a6	-0.19061527
228	0x3c7a54f9	0.015279048
229	0x3db825bc	0.08991572
230	0xbcb2c531	-0.021822544
231	0xbdef2e94	-0.11678806
232	0x3c569e04	0.013099197
233	0xbdc8736d	-0.09787641
234	0xbd62ec58	-0.055401176
235	0x3df06c52	0.117394105
236	0xbde20116	-0.110353634
237	0x3ad490d6	0.0016217481
238	0xbe4a6599	-0.19765319
239	0x3d9c2228	0.07623702
240	0x3d91650c	0.07099351
241	0x3e70ee57	0.2352842
242	0xbd11b1a9	-0.03556982
243	0x3d9c44a7	0.07630282
244	0xbe2640bf	-0.16235636
245	0xbe3acd79	-0.18242444
246	0x3ccc235b	0.024919203
247	0x3e140fc0	0.14459133
248	0xbd38083b	-0.044929724
249	0x3d7931cb	0.060838502
250	0xbe22f25c	-0.15912765
251	0x3d4ecaf0	0.050486505
252	0xbca2ffb4	-0.01989732
253	0xbe05727a	-0.1303195
254	0xbbeef3de	-0.007292255
255	0xbe2994c0	-0.1656065

fc1.bias f4 [48]
0	0xbcdbcd02	-0.026831154
1	0xbf064007	-0.5244145
2	0x3d10d4bb	0.035359126
3	0x3e9baf8e	0.30407375
4	0x3dbec0ca	0.09314115
5	0xbc62831f	-0.013825207
6	0xbddf1abf	-0.10893773
7	0xbd9b03ff	-0.075691216
8	0x3d00621f	0.031343576
9	0x3d6f4f52	0.058425255
10	0x3be183de	0.006882175
11	0xbdf05ba8	-0.11736232
12	0xbcd46d74	-0.025931098
13	0xbd46b526	-0.0485126
14	0x3e5fc3b8	0.21852005
15	0xbe03a609	-0.12856306
16	0x3dac1ff1	0.0840453
17	0x3e8c3ff6	0.27392548
18	0x3e751fe8	0.23937953
19	0x3e5ffd01	0.21873857
20	0x3d880631	0.06641806
21	0x3e1e3c58	0.15452707
22	0x3d0603cf	0.032718476
23	0x3e55c3ff	0.20875548
24	0xbe214c00	-0.15751648
25	0xbf141a37	-0.578525
26	0x3d2d9c31	0.042385284
27	0xbd683c00	-0.056697845
28	0xbe449452	-0.19197205
29	0xbf533a9c	-0.82511306
30	0xbdefb3fd	-0.11704252
31	0xbf809a0f	-1.0047015
32	0x3c6aa1a1	0.014320762
33	0x3dabfbb0	0.08397615
34	0xbf4bf8d3	-0.7967655
35	0xbe03ff02	-0.12890247
36	0x3d70f3f5	0.058826406
37	0x3e2e8f8d	0.17046948
38	0x3d6a41e7	0.057191756
39	0x3e198596	0.14992365
40	0xbd949e83	-0.07256796
41	0xbd436981	-0.04770804
42	0x3e43036f	0.19044279
43	0xbe501ddd	-0.20323892
44	0xbf4e1b13	-0.8051006
45	0xbd989d6a	-0.07451899
46	0xbde0241f	-0.109443896
47	0xbdaf0e69	-0.085476704

fc2.weight f4 [96, 48]
0	0x3dfd9c0f	0.123832814
1	0xbe440792	-0.19143513
2	0xbc9006c9	-0.01758136
3	0xbc8bdaf0	-0.017072171
4	0xbd9f4bac	-0.07778105
5	0x3c612e80	0.013743997
6	0x3e1c283a	0.1524972
7	0xbda02778	-0.07820028
8	0xbe2dfab8	-0.16990173
9	0x3d5f817a	0.054566838
10	0x3ca33d21	0.01992661
11	0xbd16f05d	-0.036850322
12	0xbd18fb66	-0.037349127
13	0x3d494f97	0.04914817
14	0x3db0cfde	0.086333975
15	0xbe14036a	-0.14454427
16	0x3e1c5250	0.15265775
17	0xbe4adc38	-0.1981057
18	0xbbe3e379	-0.006954607
19	0xbdd95f7c	-0.10613915
20	0x3e136a23	0.14395957
21	0x3cf8d814	0.030376472
22	0x3baff33e	0.005369573
23	0xbce5e5d4	-0.028063692
24	0xbe06b2c7	-0.13154136
25	0xbda01f1a	-0.07818432
26	0xbdfea037	-0.12432902
27	0x3b4b80c6	0.0031052097
28	0xbe00f131	-0.12592007
29	0xbe540edd	-0.20708795
30	0xbe3f7e76	-0.18700585
31	0xbd299c30	-0.041408718
32	0xbd173141	-0.036912207
33	0x3e6d559a	0.23177186
34	0xbe11dd21	-0.1424451
35	0x3d61ea14	0.055154875
36	0xbe389f3c	-0.18029493
37	0xbdf51689	-0.11967189
38	0xbdb00a84	-0.08595756
39	0xbdad987a	-0.08476348
40	0x3debae3a	0.115078405
41	0xbcc08c26	-0.023504328
42	0x3b55d85f	0.0032630188
43	0xbe243d99	-0.16039123
44	0xbe070195	-0.13184197
45	0x3db04cde	0.08608411
46	0xbdb35e49	-0.08758218
47	0x3d8a9071	0.06765831
48	0xbd6a58bd	-0.057213534
49	0xbe27d527	-0.16389905
50	0xbcca082a	-0.024662096
51	0x3c34923f	0.011021196
52	0xbd168fdf	-0.0367583
53	0x3dba4661	0.09095455
54	0xbc7c4497	-0.0153972125
55	0x3d24a4f3	0.04019637
56	0xbdb343d0	-0.087531686
57	0x3bedff99	0.0072631356
58	0x3cb4af2a	0.022056181
59	0xbca04c4b	-0.01956763
60	0xbdbe437b	-0.09290215
61	0xbd9af564	-0.07566336
62	0x3e12885d	0.14309831
63	0xbda980ff	-0.08276557
64	0xbdab3852	-0.083603516
65	0x3e0a608c	0.13513392
66	0x3bfe13d6	0.0077538295
67	0xbd032077	-0.032013383
68	0xbd97116f	-0.07376372
69	0x3c90b907	0.017666353
70	0xbc9fe632	-0.019518945
71	0xbd89c075	-0.067261614
72	0x3dc382d5	0.095464386
73	0xbc7e38e8	-0.015516497
74	0xbe2c1dd0	-0.16808248
75	0x3cd25eed	0.02568003
76	0xbdcf4950	-0.10121405
77	0xbe8437fa	-0.25823957
78	0x3e4a502e	0.19757149
79	0xbd891f7b	-0.066954575
80	0xbdded974	-0.1088132
81	0xbca63248	-0.020287648
82	0xbc8e70f2	-0.01738784
83	0xbc8c2f8a	-0.017112512
84	0xbd4bd6a0	-0.04976523
85	0xbd90ef7c	-0.07076928
86	0xbe1a068e	-0.15041563
87	0xbe3c741b	-0.18403666
88	0x3d9d7e1a	0.076900676
89	0xbd98fd9b	-0.074702464
90	0xbdbc6788	-0.091994345
91	0xbcce28b8	-0.0251659
92	0xbd0798d5	-0.033104736
93	0x3dd1d8d7	0.10246437
94	0xbb80d54a	-0.003931676
95	0xbd9c9c6e	-0.07647024
96	0xbc9068a7	-0.017628027
97	0xbdf30cb7	-0.118676595
98	0xbd23a2f1	-0.039950315
99	0xbe498ab9	-0.19681825
100	0x3d87744e	0.0661398
101	0x3d7a78f9	0.061150525
102	0x3e0773a6	0.1322771
103	0xbc1458d3	-0.0090543805
104	0xbd7fe965	-0.06247844
105	0xbd426491	-0.04745919
106	0x3d97b072	0.07406701
107	0x3d3da714	0.046301916
108	0xbc5719ff	-0.013128757
109	0xbd074560	-0.033025146
110	0x3d949a47	0.072559886
111	0x3e0ef417	0.139603
112	0xbc8b4912	-0.017002616
113	0x3da1365f	0.078716986
114	0x3e250fd4	0.16119319
115	0x3db228a2	0.08699156
116	0x3dae79e0	0.085193396
117	0xbde76576	-0.11298649
118	0xbe3f0daf	-0.18657564
119	0x3d0379a6	0.032098435
120	0x3d082b1b	0.033244234
121	0xbd286482	-0.041111477
122	0xbc3992a6	-0.011326468
123	0x3e42273b	0.18960278
124	0xbe8339ea	-0.25630122
125	0xbdf9d704	-0.12199214
126	0xbcdfb0c3	-0.027305966
127	0xbd781d10	-0.06057459
128	0x3ca576ed	0.02019831
129	0xbd9fb56c	-0.07798275
130	0xbe2fedc9	-0.17180552
131	0xbc9354f1	-0.01798484
132	0x3d5d6b92	0.054057665
133	0xbe30492f	-0.17215417
134	0xbdc30552	-0.09522499
135	0x3d3619e7	0.044458296
136	0xbe431ea4	-0.19054657
137	0xbe605ca7	-0.21910344
138	0x3d39cd2e	0.04536169
139	0xbd73f243	-0.05955721
140	0xba5faa54	-0.0008532156
141	0xbd78d282	-0.06074763
142	0x3e10fe29	0.14159454
143	0x3e35bdca	0.1774818
144	0xbd05af0a	-0.032637633
145	0xbe233420	-0.15937853
146	0xbd90652f	-0.07050549
147	0xbdd354d2	-0.103189126
148	0xbce662fb	-0.02812337
149	0x3cc7557c	0.024332754
150	0xbe061add	-0.13096185
151	0x3c78719b	0.015163804
152	0xbbded8e8	-0.0068007596
153	0x3e18016a	0.1484429
154	0xbce2d40e	-0.027689006
155	0x3b886956	0.0041629476
156	0x3d49de12	0.04928405
157	0xbcf2a4b3	-0.02961955
158	0xbc9b5655	-0.018962065
159	0x3db79d3a	0.089655355
160	0x3db29274	0.0871934
161	0x3e1ddb09	0.15415587
162	0xbe4b9857	-0.19882332
163	0xbe18c518	-0.14918935
164	0xbdad8bd0	-0.08473933
165	0xbdfdbe38	-0.12389797
166	0x3d6d708e	0.05796867
167	0xbde8a97a	-0.1136045
168	0x3da85f75	0.08221332
169	0xbd2126d8	-0.039343685
170	0x3dbfe3c8	0.09369618
171	0x3c296bfe	0.010340689
172	0xbc82d68a	-0.01597144
173	0xbe03c457	-0.12867866
174	0x3db2a0be	0.087220654
175	0xbe3909b1	-0.18070103
176	0xbdb4b5ef	-0.088237636
177	0x3e71d416	0.2361606
178	0xbe2bbd1d	-0.1677136
179	0xbe0dc119	-0.13843192
180	0x3caaacaa	0.020834286
181	0x3d097692	0.033560343
182	0x3dc708b6	0.09718458
183	0x39640791	0.00021746593
184	0x3df760f3	0.120790385
185	0xbd9d89a1	-0.07692266
186	0xbc2d0958	-0.01056131
187	0xbe035fac	-0.12829465
188	0xbdca4a59	-0.09877462
189	0x3c757b0d	0.014982951
190	0xbd46adbd	-0.048505533
191	0x3e2c8ef2	0.16851404
192	0xbd7a6c56	-0.061138473
193	0xbdff0aca	-0.1245323
194	0xbb3bf69b	-0.0028680924
195	0xbd057b61	-0.032588366
196	0xbdcf4ff3	-0.10122671
197	0xbe63dd1a	-0.22252312
198	0x3e2261d0	0.15857625
199	0x3cfdb48d	0.030969882
200	0xbd1aed1f	-0.037823793
201	0xbccc18cc	-0.024914168
202	0x3e23eb42	0.16007712
203	0xbe1210b7	-0.14264189
204	0xbd5468f7	-0.051857915
205	0x3e12d322	0.14338353
206	0xbe1d67ad	-0.1537158
207	0x3dbcd3f6	0.09220116
208	0x3ac53535	0.0015045764
209	0x3e36b16a	0.17841116
210	0xbe384b5d	-0.17997499
211	0xbe5d0573	-0.2158411
212	0x3d2c870f	0.04212099
213	0x3db0b4a7	0.08628207
214	0xbd4214a0	-0.04738295
215	0xbde071e5	-0.10959224
216	0x3cdbaa08	0.026814476
217	0xbdfebf04	-0.12438777
218	0xbd76bf53	-0.060241055
219	0x3e0a45b4	0.13503152
220	0xbe3f075a	-0.18655148
221	0xbd822c68	-0.06356126
222	0x3c61d599	0.013783836
223	0xbd03e423	-0.03219999
224	0xbe31931f	-0.17341278
225	0x3e62aebb	0.22136967
226	0xbe452b27	-0.19254743
227	0x3ca205e1	0.019778194
228	0x3d6f148c	0.058369204
229	0x3cbc72fd	0.02300405
230	0xbe4b57e6	-0.1985775
231	0xbdd1bd00	-0.10241127
232	0x3deadd7b	0.11468025
233	0x3d05456b	0.032536905
234	0xbd85c7d0	-0.06532252
235	0xbd2d5eb8	-0.04232666
236	0xbe8bcde6	-0.27305526
237	0xbd012bc8	-0.031535894
238	0x3dfa4fa1	0.12222219
239	0x3ccf018e	0.025269296
240	0x3d9be7f0	0.07612598
241	0xbe689c81	-0.22715952
242	0x3c257480	0.010098577
243	0xbd2eab70	-0.042643964
244	0xbcb14f08	-0.02164413
245	0xbe2a1eb6	-0.16613278
246	0xbd2f10cb	-0.042740624
247	0xbd05a054	-0.032623604
248	0x3cb3dd25	0.021956036
249	0x3d918f6a	0.07107432
250	0xbd8b7b49	-0.06810624
251	0x3cfc41b3	0.030793047
252	0x3dab952a	0.0837806
253	0xbd9be70e	-0.076124296
254	0x3c667920	0.014066964
255	0xbdbaa431	-0.09113348

fc2.bias f4 [96]
0	0xbe749a10	-0.23886895
1	0xbe65cab7	-0.22440611
2	0x3de5e802	0.112258926
3	0x3e390b49	0.18070711
4	0xbc15f9c4	-0.009153787
5	0x3e80b993	0.25141582
6	0xbf0b585a	-0.5443169
7	0xbeface3e	-0.48985475
8	0xbf870715	-1.0549036
9	0xbd05fb1e	-0.032710187
10	0x3d34a7c5	0.04410531
11	0xbc7ee70d	-0.0155580165
12	0xbc234efa	-0.00996756
13	0xbd5bedcf	-0.05369359
14	0xbddd03e8	-0.10791761
15	0xbf2551ba	-0.6457783
16	0xbbb76f90	-0.005598016
17	0x3e1c6fa8	0.15276968
18	0x3ee73c56	0.4516322
19	0x3ec72a39	0.388994
20	0xbf03cfbb	-0.51488847
21	0x3e91afa0	0.28454304
22	0x3e56e38c	0.2098524
23	0xbfa85343	-1.315041
24	0xbf30a643	-0.69003695
25	0xbeeb6cb4	-0.4598137
26	0x3df69a3e	0.12041138
27	0xbe3874a3	-0.18013243
28	0x3e697b3a	0.22800913
29	0xbd4ea305	-0.050448436
30	0xbfbeb0aa	-1.4897664
31	0xbd1bc68e	-0.038031153
32	0x3e500b9a	0.20316926
33	0xbdb58b2e	-0.08864437
34	0xbeb58e74	-0.35460246
35	0xbea4197b	-0.3205069
36	0x3ef34c26	0.47519034
37	0xbdca7e05	-0.098873176
38	0xbf0454b6	-0.5169176
39	0x3e4c69cb	0.19962232
40	0xbf0a52a4	-0.5403235
41	0xbeb5e56e	-0.35526603
42	0xbe9dd494	-0.30826247
43	0xbe2eae61	-0.17058708
44	0x3e3f6cc9	0.18693842
45	0x3e9835d9	0.29728583
46	0xbf01dc28	-0.50726557
47	0xbd77c939	-0.060494635
48	0xbee0574c	-0.43816602
49	0xbe1e84cc	-0.15480345
50	0xbe3f04f5	-0.18654235
51	0x3ded603a	0.115906194
52	0x3dc11b3b	0.09429022
53	0x3dfad758	0.12248105
54	0xbec9c266	-0.39406127
55	0x3ebf61d1	0.37379315
56	0xbdfe5cd4	-0.12420049
57	0xbeb67070	-0.35632658
58	0xbfa2d0ea	-1.2720006
59	0xbd90c6e2	-0.07069184
60	0x3dbdc8aa	0.09266789
61	0x3dd1233f	0.10211801
62	0xbeaacb1c	-0.33358085
63	0x3e27b402	0.16377261
64	0xbe0d345c	-0.13789505
65	0xbecf797f	-0.40522382
66	0xbe70efc1	-0.23528959
67	0x3eb2e5e0	0.34941006
68	0xbfb2bea4	-1.3964429
69	0x3e639d1e	0.22227904
70	0x3e9dd1a5	0.3082401
71	0x3e128b4a	0.14310947
72	0xbe0068f2	-0.12540033
73	0x3e8f69ec	0.280105
74	0x3de1278e	0.109938726
75	0x3e903766	0.28167266
76	0xbe3db840	-0.18527317
77	0xbe3f1360	-0.18659735
78	0x3f4bc14d	0.7959183
79	0x3ce727e5	0.028217265
80	0xbec32413	-0.3811346
81	0xbdd2d4b3	-0.102944754
82	0xbf7e6c91	-0.9938441
83	0x3e11038f	0.14161514
84	0xbea567e4	-0.32305825
85	0xbe93170e	-0.28728527
86	0x3e2830c0	0.16424847
87	0xbede206e	-0.43384117
88	0xbd4015e3	-0.046895873
89	0xbef022ab	-0.4690145
90	0x3edbcde4	0.4293052
91	0xbe65940e	-0.2241976
92	0xbdc3088d	-0.09523115
93	0xbb267d15	-0.0025404145
94	0xbd84d001	-0.06484986
95	0x3e9ed118	0.310189

fc3.weight f4 [48, 96]
0	0xbd71ee61	-0.059065226
1	0xbdc836e5	-0.09776095
2	0xbd57a2e7	-0.05264559
3	0xbc9a4d71	-0.018835755
4	0xbe9393d8	-0.28823733
5	0xbea3d433	-0.31997833
6	0xbcff88c6	-0.031193148
7	0xbcc1e80d	-0.02367022
8	0xbbc0e412	-0.005886563
9	0xbb316724	-0.0027069533
10	0xbe566ea8	-0.2094065
11	0xbe477065	-0.19476469
12	0xbd9c5734	-0.0763382
13	0xbdda700a	-0.10665901
14	0x3c967f00	0.018371105
15	0xbe7f362d	-0.2492301
16	0x3c009368	0.007847644
17	0xbe1ad7fe	-0.15121457
18	0xbeeb640d	-0.4597477
19	0xbed220b9	-0.4104059
20	0xbd242673	-0.04007573
21	0xbbe2c960	-0.0069209784
22	0xbdc9be49	-0.09850747
23	0x3e16e58b	0.14736001
24	0xbe89cb8a	-0.269131
25	0x3df8c59d	0.12147067
26	0xbe21d0da	-0.15802327
27	0xbdd597ae	-0.10429321
28	0x3d940c1f	0.072288744
29	0x3cd7e058	0.026352093
30	0xbd0e012b	-0.034669083
31	0x3de362ed	0.11102853
32	0xbf217d78	-0.63082075
33	0xbdbcd553	-0.09220376
34	0xbd00b33b	-0.031420927
35	0xbd663bbe	-0.05620932
36	0xbe3842d2	-0.1799424
37	0xbdc3d3e4	-0.09561899
38	0xbddb551b	-0.10709592
39	0x3d237f07	0.039916065
40	0xbd9a570f	-0.07536136
41	0xbef4ce25	-0.47813526
42	0xbdca1c36	-0.09868662
43	0xbe137eca	-0.14403835
44	0xbe829921	-0.25507453
45	0xbe96dd5c	-0.2946576
46	0xbc0ba0b5	-0.008522202
47	0xbddd3039	-0.10800213
48	0xbdf2f4fc	-0.11863133
49	0xbd31fa02	-0.043451317
50	0x3d32fec0	0.04369998
51	0xbccd5254	-0.025063671
52	0xbe0466a7	-0.12929784
53	0xbdb1d580	-0.086833
54	0x3d921e48	0.07134682
55	0xbe17ac65	-0.14811857
56	0x3dd4cb01	0.103902824
57	0xbd8ce15e	-0.06878923
58	0xbef482af	-0.47755954
59	0xbddf061b	-0.108898364
60	0xbe87ede2	-0.26548678
61	0xbeb83579	-0.35978296
62	0xbd19c640	-0.03754258
63	0xbe847a7c	-0.25874698
64	0xbe1752ab	-0.14777629
65	0xbe018cde	-0.12651393
66	0xbc9d4f68	-0.019202903
67	0xbe787b9f	-0.24265908
68	0xbd52ac51	-0.051433865
69	0xbe8c2ff0	-0.27380323
70	0x3dddb911	0.10826314
71	0x3bcaf4e0	0.006193742
72	0x3c575b23	0.013144287
73	0xbd7012e5	-0.05861177
74	0x3d6201cf	0.055177506
75	0x3cf604d6	0.030031603
76	0xbe2c208f	-0.16809295
77	0xbda2a9a8	-0.079425156
78	0xbe922003	-0.28540048
79	0xbddf05f3	-0.108898066
80	0xbda2737d	-0.07932184
81	0x3d176394	0.0369602
82	0xbe18d1b3	-0.14923744
83	0x3d2172c7	0.0394161
84	0xbe3ef443	-0.18647866
85	0xbd32dabd	-0.043665636
86	0xbdfdf075	-0.12399379
87	0x3bc3061a	0.005951655
88	0x3d1fb83f	0.03899407
89	0xbf0a94c4	-0.5413325
90	0xbdc7b908	-0.09752089
91	0xbe18e4d5	-0.14931042
92	0xbd9171d8	-0.07101792
93	0x3dc95a0d	0.09831629
94	0xbde60d8a	-0.11233051
95	0xbe762c1c	-0.24040264
96	0xbdce0337	-0.10059207
97	0xbebdaef2	-0.37047535
98	0x3c45387d	0.012037394
99	0xbd5da982	-0.054116733
100	0xbe6bbfed	-0.23022433
101	0xbcd2666a	-0.0256836
102	0xbd94f5ef	-0.072734706
103	0xbed172f7	-0.40908024
104	0xbd9f538e	-0.07779609
105	0x3d35d14c	0.044389054
106	0xbe03ed3d	-0.12883468
107	0xbeb1a924	-0.34699357
108	0x3d0a47d2	0.0337599
109	0xbe8b443f	-0.27200505
110	0xbc8a8c76	-0.01691268
111	0xbe0840a2	-0.13305905
112	0xbdbcbab9	-0.09215302
113	0x3cc3263c	0.023821943
114	0x3dee3b4c	0.11632404
115	0x3c3463a9	0.011010089
116	0xbd994a8c	-0.07484922
117	0xbe3d3fa7	-0.18481313
118	0xbe365156	-0.17804465
119	0xbc71c489	-0.01475633
120	0xbd6776ee	-0.056509905
121	0xbdfcc9b4	-0.12343159
122	0x3da99244	0.08279851
123	0xbddaa368	-0.106756985
124	0xbda316c1	-0.07963324
125	0xbe478a6d	-0.19486399
126	0xbd28e648	-0.04123524
127	0x3e400030	0.18750072
128	0xbdb67077	-0.0890817
129	0xbdb27835	-0.08714334
130	0xbd24d44b	-0.04024152
131	0xbe0a4a7b	-0.13504975
132	0xbc9d5073	-0.0192034
133	0xbdbbbe5e	-0.09167169
134	0xbd9dcf62	-0.07705571
135	0xbce1f058	-0.027580425
136	0x3c61e33c	0.013787087
137	0xbd835497	-0.064126186
138	0x3d1fb8c4	0.038994566
139	0xbd6b7162	-0.057481177
140	0x3d266b86	0.040629886
141	0x3cb4606f	0.02201864
142	0xbdd59da9	-0.10430462
143	0xbe8dbcc6	-0.27683085
144	0x3d637517	0.055531587
145	0xbe3d83b1	-0.18507268
146	0xbe8167c4	-0.2527448
147	0xbdb842e3	-0.08997133
148	0xbcba977e	-0.022777315
149	0x3d6b9af9	0.05752084
150	0xbd980662	-0.074230924
151	0xbcd24e49	-0.025672095
152	0xbde0527d	-0.109532334
153	0xbdf9717d	-0.12179849
154	0xbd396f2e	-0.045272045
155	0xbe3f6476	-0.18690667
156	0xbdbfbacf	-0.09361803
157	0x3d44c5e8	0.0480403
158	0xbda44896	-0.08021657
159	0x3b723986	0.0036960556
160	0xbe216f2e	-0.15765068
161	0xbdb94203	-0.09045794
162	0xbd2a6f1d	-0.041609872
163	0x3d7da79c	0.061927423
164	0xbce92c4c	-0.028463505
165	0xbdc81363	-0.09769323
166	0xbe2e2473	-0.17006092
167	0xbdadefe9	-0.08493025
168	0xbdd036a8	-0.10166675
169	0x3b77a5ad	0.003778796
170	0x3d2f3682	0.042776592
171	0x3de07558	0.109598815
172	0xbdf7e4e1	-0.12104202
173	0xbd27c402	-0.040958412
174	0xbd27464a	-0.040838517
175	0xbdd50b88	-0.1040259
176	0xbdb94501	-0.090463646
177	0xbc94ffdd	-0.018188411
178	0xbd01c5ae	-0.031682663
179	0x3d8560b4	0.06512585
180	0x3c3c941b	0.0115099205
181	0x3c9811dc	0.018563204
182	0xbb80fa50	-0.0039360896
183	0xbe1c9e1e	-0.15294692
184	0xbdeec454	-0.1165854
185	0xbd694d95	-0.056958754
186	0xbe1aaf7d	-0.15106006
187	0xbe1662ee	-0.14686176
188	0xbda16f67	-0.078825764
189	0xbdf71298	-0.12064093
190	0xbe74006d	-0.23828287
191	0xbcb3e31f	-0.021958886
192	0xbdf55adc	-0.11980221
193	0x3c317aa6	0.010832464
194	0x3e9de579	0.30839136
195	0x3bec11b2	0.007204258
196	0x3d3c8d94	0.046033457
197	0xbdf242e5	-0.11829165
198	0x3c7c0e38	0.015384249
199	0x3d48db66	0.04903736
200	0xbe3e5322	-0.185864
201	0xbba1dcde	-0.0049396595
202	0xbe061ebf	-0.13097666
203	0xbdbef95e	-0.09324907
204	0x3d1020b2	0.03518743
205	0xbcfbb420	-0.030725539
206	0x3cc283b2	0.023744438
207	0x3d382ba8	0.04496351
208	0x3ceed19f	0.02915269
209	0xbbe83490	-0.007086344
210	0xbdbf787b	-0.09349152
211	0xbda45199	-0.08023376
212	0xbca38161	-0.019959154
213	0xbcf4e265	-0.02989311
214	0xbd93ba9e	-0.07213329
215	0xbdc25e3d	-0.09490631
216	0xbe007d87	-0.12547885
217	0xbd69a8b2	-0.057045646
218	0x3e01f32a	0.12690416
219	0x3da5c0fa	0.08093448
220	0xbdaaa1c8	-0.083316386
221	0xbdeabfd3	-0.11462369
222	0xbe889569	-0.2667649
223	0x3bd4d870	0.006495528
224	0x3d9571ac	0.07297072
225	0xbdd68565	-0.10474662
226	0x3d92c419	0.07166309
227	0xbbc246a7	-0.0059288326
228	0xbc003891	-0.0078259865
229	0x3c20e91a	0.009821201
230	0xbe36c63f	-0.17849062
231	0x3dcf6c47	0.10128074
232	0xbc9aa4b5	-0.018877367
233	0xbe194294	-0.14966804
234	0xbdecb79e	-0.1155846
235	0x3cd2dc67	0.025739862
236	0xbdc14aa8	-0.09438068
237	0x3e274cb7	0.16337858
238	0xbe2cc205	-0.16870888
239	0x3ce6c5c6	0.028170478
240	0xbe631998	-0.22177732
241	0x3c3b4b45	0.01143152
242	0x3c906629	0.017626839
243	0xbe1480a1	-0.14502193
244	0xbdff4e6d	-0.124661304
245	0xbde415c4	-0.11136964
246	0x3d3a79a7	0.045526173
247	0xbde7a1b8	-0.11310142
248	0xbce8d64b	-0.028422495
249	0x3d1d0bae	0.038341217
250	0xbe33ee1a	-0.17571297
251	0x3d5f66ec	0.054541513
252	0xbd0a706a	-0.033798613
253	0x3d27f11e	0.04100143
254	0x3ced0dd9	0.028937267
255	0xbd318f19	-0.04334936

fc3.bias f4 [48]
0	0xbe5e96e5	-0.21737249
1	0x3ead53b0	0.3385291
2	0x3ee053aa	0.4381383
3	0xbec5a896	-0.38605183
4	0x3eee4547	0.4653723
5	0x3dc119c5	0.09428743
6	0xbea01644	-0.31266987
7	0xbda06257	-0.07831257
8	0x3f5bed11	0.8590861
9	0x3d2eb5b9	0.042653773
10	0x3e8daf04	0.2767259
11	0x3ef19664	0.4718505
12	0xbeacb39c	-0.3373078
13	0x3ef0d3d1	0.47036603
14	0x3d09b1e5	0.03361692
15	0xbd96d037	-0.073639326
16	0x3f6dc6df	0.9288158
17	0x3f7c8fa1	0.9865666
18	0xbe43c96b	-0.19119804
19	0xbe13f1e1	-0.14447738
20	0x3dad19f5	0.084522165
21	0x3f2a8e89	0.6662374
22	0xbe41d856	-0.18930182
23	0xbe1165ff	-0.14199065
24	0x3e3141ee	0.17310306
25	0x3f97341b	1.1812776
26	0x3f2d70af	0.67750067
27	0x3f160954	0.58607984
28	0x3e3fc443	0.18727212
29	0xbe6d41ed	-0.2316968
30	0xbdfc670e	-0.123243436
31	0x3f37af9d	0.7175234
32	0xbddc44bb	-0.10755297
33	0x3cc55482	0.024088148
34	0x3ee383d6	0.4443652
35	0xbc97b421	-0.01851851
36	0x3f89730b	1.0738233
37	0x3daf852d	0.08570323
38	0xbe70b257	-0.23505531
39	0xbe5353fc	-0.20637506
40	0xbe6f4334	-0.2336548
41	0x3e80cefc	0.25157917
42	0xbd64c7b6	-0.05585452
43	0x3e578aec	0.21049088
44	0xbe0ef85e	-0.13961932
45	0xbdd130db	-0.102143966
46	0x3f8d6876	1.1047504
47	0x3f9d65d2	1.2296698

fc4_1.weight f4 [1, 48]
0	0x3c95ef2f	0.018302528
1	0xbd0e70e2	-0.034775622
2	0x3b7566fc	0.0037445417
3	0x3c3019f7	0.010748378
4	0xbbf94c56	-0.007607977
5	0x3cc0b544	0.023523934
6	0x3d2590f5	0.040421445
7	0x3cc47d0f	0.023985414
8	0x3c9c094e	0.019047406
9	0x3d0212d6	0.031756245
10	0xbc6d87cc	-0.0144977085
11	0x3cc30482	0.02380586
12	0x3c32fc33	0.010924387
13	0xbc80189e	-0.015636738
14	0x3d46e280	0.04855585
15	0x3ccf6fbb	0.025321832
16	0x3c30fd37	0.010802559
17	0x3c8b80dc	0.017029218
18	0x3ca7c640	0.020480275
19	0xba715d37	-0.00092073105
20	0x3c271df1	0.01020001
21	0xbcc57a35	-0.024106124
22	0x3c91789d	0.017757708
23	0x3d5096b7	0.050924983
24	0x3d8b6b12	0.068075314
25	0xba00775c	-0.00049005984
26	0xbcaa3ccc	-0.020780943
27	0x3c359381	0.011082531
28	0xbc9f6cd9	-0.019461082
29	0x3c92abac	0.017904125
30	0x3d57037e	0.052493565
31	0xbb9d36f3	-0.00479781
32	0x3ccdc629	0.025118904
33	0x3cc8dfa8	0.02452071
34	0x3c59ec10	0.013300911
35	0x3d479212	0.048723288
36	0xbc3b09de	-0.011415927
37	0x3bdfe3d2	0.006832578
38	0x3cc1776f	0.02361652
39	0x3c8e957e	0.017405268
40	0x3cc641a7	0.024201227
41	0x3c14e892	0.009088652
42	0x3b9566ce	0.0045593744
43	0xbc0b1de4	-0.008491013
44	0x3d0a704c	0.0337985
45	0x3cb5246b	0.022112092
46	0xbc8f69a2	-0.017506424
47	0xbba3f75d	-0.0050038532

fc4_2.weight f4 [1, 48]
0	0x3c601b68	0.013678409
1	0x3d75c3ad	0.060001064
2	0xbe9415e3	-0.28922948
3	0x3d8cc2ea	0.068731144
4	0xbe5da5dd	-0.21645303
5	0xbe317624	-0.17330223
6	0xbc02130c	-0.007939111
7	0x3ccedce7	0.025251819
8	0xbe812e4f	-0.25230643
9	0x3d15e540	0.036595583
10	0xbe0434e5	-0.12910803
11	0x3f1e7c79	0.6190868
12	0x3d2f1f0c	0.042754218
13	0xbe59c3d1	-0.21266104
14	0x3dbd9af8	0.092580736
15	0x3e0f52fe	0.13996503
16	0xbec085c6	-0.3760206
17	0xbe8f5dbd	-0.28001204
18	0x3ca328ea	0.01991697
19	0x3da01502	0.07816507
20	0x3dc0a301	0.094060905
21	0xbe7b63af	-0.24549745
22	0x3cb404ba	0.02197491
23	0x3d9e0ca9	0.077172585
24	0x3edc120f	0.42982528
25	0xbed73547	-0.42032835
26	0xbdbef5c6	-0.09324221
27	0x3f8ee8ff	1.1164855
28	0x3e673eba	0.22582522
29	0x3d06c7fc	0.032905564
30	0x3d9598fc	0.0730457
31	0xbe5e0321	-0.21680881
32	0xbc9097e5	-0.017650554
33	0x3d021fdd	0.03176867
34	0xbe6d1a54	-0.23154575
35	0x3d834bbe	0.06410931
36	0xbe944830	-0.28961325
37	0xbddd8f38	-0.108183324
38	0x3caea1e7	0.021317435
39	0x3c5642a5	0.013077413
40	0x3cd52284	0.026017435
41	0xbe59aae1	-0.21256591
42	0x3cd875a2	0.02642328
43	0xbdebf08a	-0.115204886
44	0xbdaeaa2c	-0.085285515
45	0x3cbd3523	0.023096627
46	0xbe807aa8	-0.2509358
47	0xbea010ea	-0.31262904
